{"format": "layers-model", "generatedBy": "keras v2.13.1", "convertedBy": "TensorFlow.js Converter v4.9.0", "modelTopology": {"keras_version": "2.13.1", "backend": "tensorflow", "model_config": {"class_name": "Sequential", "config": {"name": "sequential_5", "layers": [{"class_name": "InputLayer", "config": {"batch_input_shape": [null, 224, 224, 3], "dtype": "float32", "sparse": false, "ragged": false, "name": "MobilenetV3large_input"}}, {"class_name": "Model", "config": {"name": "MobilenetV3large", "trainable": true, "layers": [{"module": "keras.layers", "class_name": "InputLayer", "config": {"batch_input_shape": [null, 224, 224, 3], "dtype": "float32", "sparse": false, "ragged": false, "name": "input_3"}, "registered_name": null, "name": "input_3", "inbound_nodes": []}, {"module": "keras.layers", "class_name": "Rescaling", "config": {"name": "rescaling_2", "trainable": false, "dtype": "float32", "scale": 0.00784313725490196, "offset": -1.0}, "registered_name": null, "build_config": {"input_shape": [null, 224, 224, 3]}, "name": "rescaling_2", "inbound_nodes": [[["input_3", 0, 0, {}]]]}, {"module": "keras.layers", "class_name": "Conv2D", "config": {"name": "Conv", "trainable": false, "dtype": "float32", "filters": 16, "kernel_size": [3, 3], "strides": [2, 2], "padding": "same", "data_format": "channels_last", "dilation_rate": [1, 1], "groups": 1, "activation": "linear", "use_bias": false, "kernel_initializer": {"module": "keras.initializers", "class_name": "GlorotUniform", "config": {"seed": null}, "registered_name": null}, "bias_initializer": {"module": "keras.initializers", "class_name": "Zeros", "config": {}, "registered_name": null}, "kernel_regularizer": null, "bias_regularizer": null, "activity_regularizer": null, "kernel_constraint": null, "bias_constraint": null}, "registered_name": null, "build_config": {"input_shape": [null, 224, 224, 3]}, "name": "Conv", "inbound_nodes": [[["rescaling_2", 0, 0, {}]]]}, {"module": "keras.layers", "class_name": "BatchNormalization", "config": {"name": "Conv/BatchNorm", "trainable": false, "dtype": "float32", "axis": [3], "momentum": 0.999, "epsilon": 0.001, "center": true, "scale": true, "beta_initializer": {"module": "keras.initializers", "class_name": "Zeros", "config": {}, "registered_name": null}, "gamma_initializer": {"module": "keras.initializers", "class_name": "Ones", "config": {}, "registered_name": null}, "moving_mean_initializer": {"module": "keras.initializers", "class_name": "Zeros", "config": {}, "registered_name": null}, "moving_variance_initializer": {"module": "keras.initializers", "class_name": "Ones", "config": {}, "registered_name": null}, "beta_regularizer": null, "gamma_regularizer": null, "beta_constraint": null, "gamma_constraint": null}, "registered_name": null, "build_config": {"input_shape": [null, 112, 112, 16]}, "name": "Conv/BatchNorm", "inbound_nodes": [[["Conv", 0, 0, {}]]]}, {"module": "keras.src.layers.core.tf_op_layer", "class_name": "TFOpLambda", "config": {"name": "tf.__operators__.add_56", "trainable": false, "dtype": "float32", "function": "__operators__.add"}, "registered_name": "TFOpLambda", "build_config": {"input_shape": [null, 112, 112, 16]}, "name": "tf.__operators__.add_56", "inbound_nodes": [["Conv/BatchNorm", 0, 0, {"y": 3.0, "name": null}]]}, {"module": "keras.layers", "class_name": "ReLU", "config": {"name": "re_lu_78", "trainable": false, "dtype": "float32", "max_value": 6.0, "negative_slope": 0.0, "threshold": 0.0}, "registered_name": null, "build_config": {"input_shape": [null, 112, 112, 16]}, "name": "re_lu_78", "inbound_nodes": [[["tf.__operators__.add_56", 0, 0, {}]]]}, {"module": "keras.src.layers.core.tf_op_layer", "class_name": "TFOpLambda", "config": {"name": "tf.math.multiply_56", "trainable": false, "dtype": "float32", "function": "math.multiply"}, "registered_name": "TFOpLambda", "build_config": {"input_shape": [null, 112, 112, 16]}, "name": "tf.math.multiply_56", "inbound_nodes": [["re_lu_78", 0, 0, {"y": 0.16666666666666666, "name": null}]]}, {"module": "keras.layers", "class_name": "Multiply", "config": {"name": "multiply_40", "trainable": false, "dtype": "float32"}, "registered_name": null, "build_config": {"input_shape": [[null, 112, 112, 16], [null, 112, 112, 16]]}, "name": "multiply_40", "inbound_nodes": [[["Conv/BatchNorm", 0, 0, {}], ["tf.math.multiply_56", 0, 0, {}]]]}, {"module": "keras.layers", "class_name": "DepthwiseConv2D", "config": {"name": "expanded_conv/depthwise", "trainable": false, "dtype": "float32", "kernel_size": [3, 3], "strides": [1, 1], "padding": "same", "data_format": "channels_last", "dilation_rate": [1, 1], "groups": 1, "activation": "linear", "use_bias": false, "bias_initializer": {"module": "keras.initializers", "class_name": "Zeros", "config": {}, "registered_name": null}, "bias_regularizer": null, "activity_regularizer": null, "bias_constraint": null, "depth_multiplier": 1, "depthwise_initializer": {"module": "keras.initializers", "class_name": "GlorotUniform", "config": {"seed": null}, "registered_name": null}, "depthwise_regularizer": null, "depthwise_constraint": null}, "registered_name": null, "build_config": {"input_shape": [null, 112, 112, 16]}, "name": "expanded_conv/depthwise", "inbound_nodes": [[["multiply_40", 0, 0, {}]]]}, {"module": "keras.layers", "class_name": "BatchNormalization", "config": {"name": "expanded_conv/depthwise/BatchNorm", "trainable": false, "dtype": "float32", "axis": [3], "momentum": 0.999, "epsilon": 0.001, "center": true, "scale": true, "beta_initializer": {"module": "keras.initializers", "class_name": "Zeros", "config": {}, "registered_name": null}, "gamma_initializer": {"module": "keras.initializers", "class_name": "Ones", "config": {}, "registered_name": null}, "moving_mean_initializer": {"module": "keras.initializers", "class_name": "Zeros", "config": {}, "registered_name": null}, "moving_variance_initializer": {"module": "keras.initializers", "class_name": "Ones", "config": {}, "registered_name": null}, "beta_regularizer": null, "gamma_regularizer": null, "beta_constraint": null, "gamma_constraint": null}, "registered_name": null, "build_config": {"input_shape": [null, 112, 112, 16]}, "name": "expanded_conv/depthwise/BatchNorm", "inbound_nodes": [[["expanded_conv/depthwise", 0, 0, {}]]]}, {"module": "keras.layers", "class_name": "ReLU", "config": {"name": "re_lu_79", "trainable": false, "dtype": "float32", "max_value": null, "negative_slope": 0.0, "threshold": 0.0}, "registered_name": null, "build_config": {"input_shape": [null, 112, 112, 16]}, "name": "re_lu_79", "inbound_nodes": [[["expanded_conv/depthwise/BatchNorm", 0, 0, {}]]]}, {"module": "keras.layers", "class_name": "Conv2D", "config": {"name": "expanded_conv/project", "trainable": false, "dtype": "float32", "filters": 16, "kernel_size": [1, 1], "strides": [1, 1], "padding": "same", "data_format": "channels_last", "dilation_rate": [1, 1], "groups": 1, "activation": "linear", "use_bias": false, "kernel_initializer": {"module": "keras.initializers", "class_name": "GlorotUniform", "config": {"seed": null}, "registered_name": null}, "bias_initializer": {"module": "keras.initializers", "class_name": "Zeros", "config": {}, "registered_name": null}, "kernel_regularizer": null, "bias_regularizer": null, "activity_regularizer": null, "kernel_constraint": null, "bias_constraint": null}, "registered_name": null, "build_config": {"input_shape": [null, 112, 112, 16]}, "name": "expanded_conv/project", "inbound_nodes": [[["re_lu_79", 0, 0, {}]]]}, {"module": "keras.layers", "class_name": "BatchNormalization", "config": {"name": "expanded_conv/project/BatchNorm", "trainable": false, "dtype": "float32", "axis": [3], "momentum": 0.999, "epsilon": 0.001, "center": true, "scale": true, "beta_initializer": {"module": "keras.initializers", "class_name": "Zeros", "config": {}, "registered_name": null}, "gamma_initializer": {"module": "keras.initializers", "class_name": "Ones", "config": {}, "registered_name": null}, "moving_mean_initializer": {"module": "keras.initializers", "class_name": "Zeros", "config": {}, "registered_name": null}, "moving_variance_initializer": {"module": "keras.initializers", "class_name": "Ones", "config": {}, "registered_name": null}, "beta_regularizer": null, "gamma_regularizer": null, "beta_constraint": null, "gamma_constraint": null}, "registered_name": null, "build_config": {"input_shape": [null, 112, 112, 16]}, "name": "expanded_conv/project/BatchNorm", "inbound_nodes": [[["expanded_conv/project", 0, 0, {}]]]}, {"module": "keras.layers", "class_name": "Add", "config": {"name": "expanded_conv/Add", "trainable": false, "dtype": "float32"}, "registered_name": null, "build_config": {"input_shape": [[null, 112, 112, 16], [null, 112, 112, 16]]}, "name": "expanded_conv/Add", "inbound_nodes": [[["multiply_40", 0, 0, {}], ["expanded_conv/project/BatchNorm", 0, 0, {}]]]}, {"module": "keras.layers", "class_name": "Conv2D", "config": {"name": "expanded_conv_1/expand", "trainable": false, "dtype": "float32", "filters": 64, "kernel_size": [1, 1], "strides": [1, 1], "padding": "same", "data_format": "channels_last", "dilation_rate": [1, 1], "groups": 1, "activation": "linear", "use_bias": false, "kernel_initializer": {"module": "keras.initializers", "class_name": "GlorotUniform", "config": {"seed": null}, "registered_name": null}, "bias_initializer": {"module": "keras.initializers", "class_name": "Zeros", "config": {}, "registered_name": null}, "kernel_regularizer": null, "bias_regularizer": null, "activity_regularizer": null, "kernel_constraint": null, "bias_constraint": null}, "registered_name": null, "build_config": {"input_shape": [null, 112, 112, 16]}, "name": "expanded_conv_1/expand", "inbound_nodes": [[["expanded_conv/Add", 0, 0, {}]]]}, {"module": "keras.layers", "class_name": "BatchNormalization", "config": {"name": "expanded_conv_1/expand/BatchNorm", "trainable": false, "dtype": "float32", "axis": [3], "momentum": 0.999, "epsilon": 0.001, "center": true, "scale": true, "beta_initializer": {"module": "keras.initializers", "class_name": "Zeros", "config": {}, "registered_name": null}, "gamma_initializer": {"module": "keras.initializers", "class_name": "Ones", "config": {}, "registered_name": null}, "moving_mean_initializer": {"module": "keras.initializers", "class_name": "Zeros", "config": {}, "registered_name": null}, "moving_variance_initializer": {"module": "keras.initializers", "class_name": "Ones", "config": {}, "registered_name": null}, "beta_regularizer": null, "gamma_regularizer": null, "beta_constraint": null, "gamma_constraint": null}, "registered_name": null, "build_config": {"input_shape": [null, 112, 112, 64]}, "name": "expanded_conv_1/expand/BatchNorm", "inbound_nodes": [[["expanded_conv_1/expand", 0, 0, {}]]]}, {"module": "keras.layers", "class_name": "ReLU", "config": {"name": "re_lu_80", "trainable": false, "dtype": "float32", "max_value": null, "negative_slope": 0.0, "threshold": 0.0}, "registered_name": null, "build_config": {"input_shape": [null, 112, 112, 64]}, "name": "re_lu_80", "inbound_nodes": [[["expanded_conv_1/expand/BatchNorm", 0, 0, {}]]]}, {"module": "keras.layers", "class_name": "ZeroPadding2D", "config": {"name": "expanded_conv_1/depthwise/pad", "trainable": false, "dtype": "float32", "padding": [[0, 1], [0, 1]], "data_format": "channels_last"}, "registered_name": null, "build_config": {"input_shape": [null, 112, 112, 64]}, "name": "expanded_conv_1/depthwise/pad", "inbound_nodes": [[["re_lu_80", 0, 0, {}]]]}, {"module": "keras.layers", "class_name": "DepthwiseConv2D", "config": {"name": "expanded_conv_1/depthwise", "trainable": false, "dtype": "float32", "kernel_size": [3, 3], "strides": [2, 2], "padding": "valid", "data_format": "channels_last", "dilation_rate": [1, 1], "groups": 1, "activation": "linear", "use_bias": false, "bias_initializer": {"module": "keras.initializers", "class_name": "Zeros", "config": {}, "registered_name": null}, "bias_regularizer": null, "activity_regularizer": null, "bias_constraint": null, "depth_multiplier": 1, "depthwise_initializer": {"module": "keras.initializers", "class_name": "GlorotUniform", "config": {"seed": null}, "registered_name": null}, "depthwise_regularizer": null, "depthwise_constraint": null}, "registered_name": null, "build_config": {"input_shape": [null, 113, 113, 64]}, "name": "expanded_conv_1/depthwise", "inbound_nodes": [[["expanded_conv_1/depthwise/pad", 0, 0, {}]]]}, {"module": "keras.layers", "class_name": "BatchNormalization", "config": {"name": "expanded_conv_1/depthwise/BatchNorm", "trainable": false, "dtype": "float32", "axis": [3], "momentum": 0.999, "epsilon": 0.001, "center": true, "scale": true, "beta_initializer": {"module": "keras.initializers", "class_name": "Zeros", "config": {}, "registered_name": null}, "gamma_initializer": {"module": "keras.initializers", "class_name": "Ones", "config": {}, "registered_name": null}, "moving_mean_initializer": {"module": "keras.initializers", "class_name": "Zeros", "config": {}, "registered_name": null}, "moving_variance_initializer": {"module": "keras.initializers", "class_name": "Ones", "config": {}, "registered_name": null}, "beta_regularizer": null, "gamma_regularizer": null, "beta_constraint": null, "gamma_constraint": null}, "registered_name": null, "build_config": {"input_shape": [null, 56, 56, 64]}, "name": "expanded_conv_1/depthwise/BatchNorm", "inbound_nodes": [[["expanded_conv_1/depthwise", 0, 0, {}]]]}, {"module": "keras.layers", "class_name": "ReLU", "config": {"name": "re_lu_81", "trainable": false, "dtype": "float32", "max_value": null, "negative_slope": 0.0, "threshold": 0.0}, "registered_name": null, "build_config": {"input_shape": [null, 56, 56, 64]}, "name": "re_lu_81", "inbound_nodes": [[["expanded_conv_1/depthwise/BatchNorm", 0, 0, {}]]]}, {"module": "keras.layers", "class_name": "Conv2D", "config": {"name": "expanded_conv_1/project", "trainable": false, "dtype": "float32", "filters": 24, "kernel_size": [1, 1], "strides": [1, 1], "padding": "same", "data_format": "channels_last", "dilation_rate": [1, 1], "groups": 1, "activation": "linear", "use_bias": false, "kernel_initializer": {"module": "keras.initializers", "class_name": "GlorotUniform", "config": {"seed": null}, "registered_name": null}, "bias_initializer": {"module": "keras.initializers", "class_name": "Zeros", "config": {}, "registered_name": null}, "kernel_regularizer": null, "bias_regularizer": null, "activity_regularizer": null, "kernel_constraint": null, "bias_constraint": null}, "registered_name": null, "build_config": {"input_shape": [null, 56, 56, 64]}, "name": "expanded_conv_1/project", "inbound_nodes": [[["re_lu_81", 0, 0, {}]]]}, {"module": "keras.layers", "class_name": "BatchNormalization", "config": {"name": "expanded_conv_1/project/BatchNorm", "trainable": false, "dtype": "float32", "axis": [3], "momentum": 0.999, "epsilon": 0.001, "center": true, "scale": true, "beta_initializer": {"module": "keras.initializers", "class_name": "Zeros", "config": {}, "registered_name": null}, "gamma_initializer": {"module": "keras.initializers", "class_name": "Ones", "config": {}, "registered_name": null}, "moving_mean_initializer": {"module": "keras.initializers", "class_name": "Zeros", "config": {}, "registered_name": null}, "moving_variance_initializer": {"module": "keras.initializers", "class_name": "Ones", "config": {}, "registered_name": null}, "beta_regularizer": null, "gamma_regularizer": null, "beta_constraint": null, "gamma_constraint": null}, "registered_name": null, "build_config": {"input_shape": [null, 56, 56, 24]}, "name": "expanded_conv_1/project/BatchNorm", "inbound_nodes": [[["expanded_conv_1/project", 0, 0, {}]]]}, {"module": "keras.layers", "class_name": "Conv2D", "config": {"name": "expanded_conv_2/expand", "trainable": false, "dtype": "float32", "filters": 72, "kernel_size": [1, 1], "strides": [1, 1], "padding": "same", "data_format": "channels_last", "dilation_rate": [1, 1], "groups": 1, "activation": "linear", "use_bias": false, "kernel_initializer": {"module": "keras.initializers", "class_name": "GlorotUniform", "config": {"seed": null}, "registered_name": null}, "bias_initializer": {"module": "keras.initializers", "class_name": "Zeros", "config": {}, "registered_name": null}, "kernel_regularizer": null, "bias_regularizer": null, "activity_regularizer": null, "kernel_constraint": null, "bias_constraint": null}, "registered_name": null, "build_config": {"input_shape": [null, 56, 56, 24]}, "name": "expanded_conv_2/expand", "inbound_nodes": [[["expanded_conv_1/project/BatchNorm", 0, 0, {}]]]}, {"module": "keras.layers", "class_name": "BatchNormalization", "config": {"name": "expanded_conv_2/expand/BatchNorm", "trainable": false, "dtype": "float32", "axis": [3], "momentum": 0.999, "epsilon": 0.001, "center": true, "scale": true, "beta_initializer": {"module": "keras.initializers", "class_name": "Zeros", "config": {}, "registered_name": null}, "gamma_initializer": {"module": "keras.initializers", "class_name": "Ones", "config": {}, "registered_name": null}, "moving_mean_initializer": {"module": "keras.initializers", "class_name": "Zeros", "config": {}, "registered_name": null}, "moving_variance_initializer": {"module": "keras.initializers", "class_name": "Ones", "config": {}, "registered_name": null}, "beta_regularizer": null, "gamma_regularizer": null, "beta_constraint": null, "gamma_constraint": null}, "registered_name": null, "build_config": {"input_shape": [null, 56, 56, 72]}, "name": "expanded_conv_2/expand/BatchNorm", "inbound_nodes": [[["expanded_conv_2/expand", 0, 0, {}]]]}, {"module": "keras.layers", "class_name": "ReLU", "config": {"name": "re_lu_82", "trainable": false, "dtype": "float32", "max_value": null, "negative_slope": 0.0, "threshold": 0.0}, "registered_name": null, "build_config": {"input_shape": [null, 56, 56, 72]}, "name": "re_lu_82", "inbound_nodes": [[["expanded_conv_2/expand/BatchNorm", 0, 0, {}]]]}, {"module": "keras.layers", "class_name": "DepthwiseConv2D", "config": {"name": "expanded_conv_2/depthwise", "trainable": false, "dtype": "float32", "kernel_size": [3, 3], "strides": [1, 1], "padding": "same", "data_format": "channels_last", "dilation_rate": [1, 1], "groups": 1, "activation": "linear", "use_bias": false, "bias_initializer": {"module": "keras.initializers", "class_name": "Zeros", "config": {}, "registered_name": null}, "bias_regularizer": null, "activity_regularizer": null, "bias_constraint": null, "depth_multiplier": 1, "depthwise_initializer": {"module": "keras.initializers", "class_name": "GlorotUniform", "config": {"seed": null}, "registered_name": null}, "depthwise_regularizer": null, "depthwise_constraint": null}, "registered_name": null, "build_config": {"input_shape": [null, 56, 56, 72]}, "name": "expanded_conv_2/depthwise", "inbound_nodes": [[["re_lu_82", 0, 0, {}]]]}, {"module": "keras.layers", "class_name": "BatchNormalization", "config": {"name": "expanded_conv_2/depthwise/BatchNorm", "trainable": false, "dtype": "float32", "axis": [3], "momentum": 0.999, "epsilon": 0.001, "center": true, "scale": true, "beta_initializer": {"module": "keras.initializers", "class_name": "Zeros", "config": {}, "registered_name": null}, "gamma_initializer": {"module": "keras.initializers", "class_name": "Ones", "config": {}, "registered_name": null}, "moving_mean_initializer": {"module": "keras.initializers", "class_name": "Zeros", "config": {}, "registered_name": null}, "moving_variance_initializer": {"module": "keras.initializers", "class_name": "Ones", "config": {}, "registered_name": null}, "beta_regularizer": null, "gamma_regularizer": null, "beta_constraint": null, "gamma_constraint": null}, "registered_name": null, "build_config": {"input_shape": [null, 56, 56, 72]}, "name": "expanded_conv_2/depthwise/BatchNorm", "inbound_nodes": [[["expanded_conv_2/depthwise", 0, 0, {}]]]}, {"module": "keras.layers", "class_name": "ReLU", "config": {"name": "re_lu_83", "trainable": false, "dtype": "float32", "max_value": null, "negative_slope": 0.0, "threshold": 0.0}, "registered_name": null, "build_config": {"input_shape": [null, 56, 56, 72]}, "name": "re_lu_83", "inbound_nodes": [[["expanded_conv_2/depthwise/BatchNorm", 0, 0, {}]]]}, {"module": "keras.layers", "class_name": "Conv2D", "config": {"name": "expanded_conv_2/project", "trainable": false, "dtype": "float32", "filters": 24, "kernel_size": [1, 1], "strides": [1, 1], "padding": "same", "data_format": "channels_last", "dilation_rate": [1, 1], "groups": 1, "activation": "linear", "use_bias": false, "kernel_initializer": {"module": "keras.initializers", "class_name": "GlorotUniform", "config": {"seed": null}, "registered_name": null}, "bias_initializer": {"module": "keras.initializers", "class_name": "Zeros", "config": {}, "registered_name": null}, "kernel_regularizer": null, "bias_regularizer": null, "activity_regularizer": null, "kernel_constraint": null, "bias_constraint": null}, "registered_name": null, "build_config": {"input_shape": [null, 56, 56, 72]}, "name": "expanded_conv_2/project", "inbound_nodes": [[["re_lu_83", 0, 0, {}]]]}, {"module": "keras.layers", "class_name": "BatchNormalization", "config": {"name": "expanded_conv_2/project/BatchNorm", "trainable": false, "dtype": "float32", "axis": [3], "momentum": 0.999, "epsilon": 0.001, "center": true, "scale": true, "beta_initializer": {"module": "keras.initializers", "class_name": "Zeros", "config": {}, "registered_name": null}, "gamma_initializer": {"module": "keras.initializers", "class_name": "Ones", "config": {}, "registered_name": null}, "moving_mean_initializer": {"module": "keras.initializers", "class_name": "Zeros", "config": {}, "registered_name": null}, "moving_variance_initializer": {"module": "keras.initializers", "class_name": "Ones", "config": {}, "registered_name": null}, "beta_regularizer": null, "gamma_regularizer": null, "beta_constraint": null, "gamma_constraint": null}, "registered_name": null, "build_config": {"input_shape": [null, 56, 56, 24]}, "name": "expanded_conv_2/project/BatchNorm", "inbound_nodes": [[["expanded_conv_2/project", 0, 0, {}]]]}, {"module": "keras.layers", "class_name": "Add", "config": {"name": "expanded_conv_2/Add", "trainable": false, "dtype": "float32"}, "registered_name": null, "build_config": {"input_shape": [[null, 56, 56, 24], [null, 56, 56, 24]]}, "name": "expanded_conv_2/Add", "inbound_nodes": [[["expanded_conv_1/project/BatchNorm", 0, 0, {}], ["expanded_conv_2/project/BatchNorm", 0, 0, {}]]]}, {"module": "keras.layers", "class_name": "Conv2D", "config": {"name": "expanded_conv_3/expand", "trainable": false, "dtype": "float32", "filters": 72, "kernel_size": [1, 1], "strides": [1, 1], "padding": "same", "data_format": "channels_last", "dilation_rate": [1, 1], "groups": 1, "activation": "linear", "use_bias": false, "kernel_initializer": {"module": "keras.initializers", "class_name": "GlorotUniform", "config": {"seed": null}, "registered_name": null}, "bias_initializer": {"module": "keras.initializers", "class_name": "Zeros", "config": {}, "registered_name": null}, "kernel_regularizer": null, "bias_regularizer": null, "activity_regularizer": null, "kernel_constraint": null, "bias_constraint": null}, "registered_name": null, "build_config": {"input_shape": [null, 56, 56, 24]}, "name": "expanded_conv_3/expand", "inbound_nodes": [[["expanded_conv_2/Add", 0, 0, {}]]]}, {"module": "keras.layers", "class_name": "BatchNormalization", "config": {"name": "expanded_conv_3/expand/BatchNorm", "trainable": false, "dtype": "float32", "axis": [3], "momentum": 0.999, "epsilon": 0.001, "center": true, "scale": true, "beta_initializer": {"module": "keras.initializers", "class_name": "Zeros", "config": {}, "registered_name": null}, "gamma_initializer": {"module": "keras.initializers", "class_name": "Ones", "config": {}, "registered_name": null}, "moving_mean_initializer": {"module": "keras.initializers", "class_name": "Zeros", "config": {}, "registered_name": null}, "moving_variance_initializer": {"module": "keras.initializers", "class_name": "Ones", "config": {}, "registered_name": null}, "beta_regularizer": null, "gamma_regularizer": null, "beta_constraint": null, "gamma_constraint": null}, "registered_name": null, "build_config": {"input_shape": [null, 56, 56, 72]}, "name": "expanded_conv_3/expand/BatchNorm", "inbound_nodes": [[["expanded_conv_3/expand", 0, 0, {}]]]}, {"module": "keras.layers", "class_name": "ReLU", "config": {"name": "re_lu_84", "trainable": false, "dtype": "float32", "max_value": null, "negative_slope": 0.0, "threshold": 0.0}, "registered_name": null, "build_config": {"input_shape": [null, 56, 56, 72]}, "name": "re_lu_84", "inbound_nodes": [[["expanded_conv_3/expand/BatchNorm", 0, 0, {}]]]}, {"module": "keras.layers", "class_name": "ZeroPadding2D", "config": {"name": "expanded_conv_3/depthwise/pad", "trainable": false, "dtype": "float32", "padding": [[1, 2], [1, 2]], "data_format": "channels_last"}, "registered_name": null, "build_config": {"input_shape": [null, 56, 56, 72]}, "name": "expanded_conv_3/depthwise/pad", "inbound_nodes": [[["re_lu_84", 0, 0, {}]]]}, {"module": "keras.layers", "class_name": "DepthwiseConv2D", "config": {"name": "expanded_conv_3/depthwise", "trainable": false, "dtype": "float32", "kernel_size": [5, 5], "strides": [2, 2], "padding": "valid", "data_format": "channels_last", "dilation_rate": [1, 1], "groups": 1, "activation": "linear", "use_bias": false, "bias_initializer": {"module": "keras.initializers", "class_name": "Zeros", "config": {}, "registered_name": null}, "bias_regularizer": null, "activity_regularizer": null, "bias_constraint": null, "depth_multiplier": 1, "depthwise_initializer": {"module": "keras.initializers", "class_name": "GlorotUniform", "config": {"seed": null}, "registered_name": null}, "depthwise_regularizer": null, "depthwise_constraint": null}, "registered_name": null, "build_config": {"input_shape": [null, 59, 59, 72]}, "name": "expanded_conv_3/depthwise", "inbound_nodes": [[["expanded_conv_3/depthwise/pad", 0, 0, {}]]]}, {"module": "keras.layers", "class_name": "BatchNormalization", "config": {"name": "expanded_conv_3/depthwise/BatchNorm", "trainable": false, "dtype": "float32", "axis": [3], "momentum": 0.999, "epsilon": 0.001, "center": true, "scale": true, "beta_initializer": {"module": "keras.initializers", "class_name": "Zeros", "config": {}, "registered_name": null}, "gamma_initializer": {"module": "keras.initializers", "class_name": "Ones", "config": {}, "registered_name": null}, "moving_mean_initializer": {"module": "keras.initializers", "class_name": "Zeros", "config": {}, "registered_name": null}, "moving_variance_initializer": {"module": "keras.initializers", "class_name": "Ones", "config": {}, "registered_name": null}, "beta_regularizer": null, "gamma_regularizer": null, "beta_constraint": null, "gamma_constraint": null}, "registered_name": null, "build_config": {"input_shape": [null, 28, 28, 72]}, "name": "expanded_conv_3/depthwise/BatchNorm", "inbound_nodes": [[["expanded_conv_3/depthwise", 0, 0, {}]]]}, {"module": "keras.layers", "class_name": "ReLU", "config": {"name": "re_lu_85", "trainable": false, "dtype": "float32", "max_value": null, "negative_slope": 0.0, "threshold": 0.0}, "registered_name": null, "build_config": {"input_shape": [null, 28, 28, 72]}, "name": "re_lu_85", "inbound_nodes": [[["expanded_conv_3/depthwise/BatchNorm", 0, 0, {}]]]}, {"module": "keras.layers", "class_name": "GlobalAveragePooling2D", "config": {"name": "expanded_conv_3/squeeze_excite/AvgPool", "trainable": false, "dtype": "float32", "data_format": "channels_last", "keepdims": true}, "registered_name": null, "build_config": {"input_shape": [null, 28, 28, 72]}, "name": "expanded_conv_3/squeeze_excite/AvgPool", "inbound_nodes": [[["re_lu_85", 0, 0, {}]]]}, {"module": "keras.layers", "class_name": "Conv2D", "config": {"name": "expanded_conv_3/squeeze_excite/Conv", "trainable": false, "dtype": "float32", "filters": 24, "kernel_size": [1, 1], "strides": [1, 1], "padding": "same", "data_format": "channels_last", "dilation_rate": [1, 1], "groups": 1, "activation": "linear", "use_bias": true, "kernel_initializer": {"module": "keras.initializers", "class_name": "GlorotUniform", "config": {"seed": null}, "registered_name": null}, "bias_initializer": {"module": "keras.initializers", "class_name": "Zeros", "config": {}, "registered_name": null}, "kernel_regularizer": null, "bias_regularizer": null, "activity_regularizer": null, "kernel_constraint": null, "bias_constraint": null}, "registered_name": null, "build_config": {"input_shape": [null, 1, 1, 72]}, "name": "expanded_conv_3/squeeze_excite/Conv", "inbound_nodes": [[["expanded_conv_3/squeeze_excite/AvgPool", 0, 0, {}]]]}, {"module": "keras.layers", "class_name": "ReLU", "config": {"name": "expanded_conv_3/squeeze_excite/Relu", "trainable": false, "dtype": "float32", "max_value": null, "negative_slope": 0.0, "threshold": 0.0}, "registered_name": null, "build_config": {"input_shape": [null, 1, 1, 24]}, "name": "expanded_conv_3/squeeze_excite/Relu", "inbound_nodes": [[["expanded_conv_3/squeeze_excite/Conv", 0, 0, {}]]]}, {"module": "keras.layers", "class_name": "Conv2D", "config": {"name": "expanded_conv_3/squeeze_excite/Conv_1", "trainable": false, "dtype": "float32", "filters": 72, "kernel_size": [1, 1], "strides": [1, 1], "padding": "same", "data_format": "channels_last", "dilation_rate": [1, 1], "groups": 1, "activation": "linear", "use_bias": true, "kernel_initializer": {"module": "keras.initializers", "class_name": "GlorotUniform", "config": {"seed": null}, "registered_name": null}, "bias_initializer": {"module": "keras.initializers", "class_name": "Zeros", "config": {}, "registered_name": null}, "kernel_regularizer": null, "bias_regularizer": null, "activity_regularizer": null, "kernel_constraint": null, "bias_constraint": null}, "registered_name": null, "build_config": {"input_shape": [null, 1, 1, 24]}, "name": "expanded_conv_3/squeeze_excite/Conv_1", "inbound_nodes": [[["expanded_conv_3/squeeze_excite/Relu", 0, 0, {}]]]}, {"module": "keras.src.layers.core.tf_op_layer", "class_name": "TFOpLambda", "config": {"name": "tf.__operators__.add_57", "trainable": false, "dtype": "float32", "function": "__operators__.add"}, "registered_name": "TFOpLambda", "build_config": {"input_shape": [null, 1, 1, 72]}, "name": "tf.__operators__.add_57", "inbound_nodes": [["expanded_conv_3/squeeze_excite/Conv_1", 0, 0, {"y": 3.0, "name": null}]]}, {"module": "keras.layers", "class_name": "ReLU", "config": {"name": "re_lu_86", "trainable": false, "dtype": "float32", "max_value": 6.0, "negative_slope": 0.0, "threshold": 0.0}, "registered_name": null, "build_config": {"input_shape": [null, 1, 1, 72]}, "name": "re_lu_86", "inbound_nodes": [[["tf.__operators__.add_57", 0, 0, {}]]]}, {"module": "keras.src.layers.core.tf_op_layer", "class_name": "TFOpLambda", "config": {"name": "tf.math.multiply_57", "trainable": false, "dtype": "float32", "function": "math.multiply"}, "registered_name": "TFOpLambda", "build_config": {"input_shape": [null, 1, 1, 72]}, "name": "tf.math.multiply_57", "inbound_nodes": [["re_lu_86", 0, 0, {"y": 0.16666666666666666, "name": null}]]}, {"module": "keras.layers", "class_name": "Multiply", "config": {"name": "expanded_conv_3/squeeze_excite/Mul", "trainable": false, "dtype": "float32"}, "registered_name": null, "build_config": {"input_shape": [[null, 28, 28, 72], [null, 1, 1, 72]]}, "name": "expanded_conv_3/squeeze_excite/Mul", "inbound_nodes": [[["re_lu_85", 0, 0, {}], ["tf.math.multiply_57", 0, 0, {}]]]}, {"module": "keras.layers", "class_name": "Conv2D", "config": {"name": "expanded_conv_3/project", "trainable": false, "dtype": "float32", "filters": 40, "kernel_size": [1, 1], "strides": [1, 1], "padding": "same", "data_format": "channels_last", "dilation_rate": [1, 1], "groups": 1, "activation": "linear", "use_bias": false, "kernel_initializer": {"module": "keras.initializers", "class_name": "GlorotUniform", "config": {"seed": null}, "registered_name": null}, "bias_initializer": {"module": "keras.initializers", "class_name": "Zeros", "config": {}, "registered_name": null}, "kernel_regularizer": null, "bias_regularizer": null, "activity_regularizer": null, "kernel_constraint": null, "bias_constraint": null}, "registered_name": null, "build_config": {"input_shape": [null, 28, 28, 72]}, "name": "expanded_conv_3/project", "inbound_nodes": [[["expanded_conv_3/squeeze_excite/Mul", 0, 0, {}]]]}, {"module": "keras.layers", "class_name": "BatchNormalization", "config": {"name": "expanded_conv_3/project/BatchNorm", "trainable": false, "dtype": "float32", "axis": [3], "momentum": 0.999, "epsilon": 0.001, "center": true, "scale": true, "beta_initializer": {"module": "keras.initializers", "class_name": "Zeros", "config": {}, "registered_name": null}, "gamma_initializer": {"module": "keras.initializers", "class_name": "Ones", "config": {}, "registered_name": null}, "moving_mean_initializer": {"module": "keras.initializers", "class_name": "Zeros", "config": {}, "registered_name": null}, "moving_variance_initializer": {"module": "keras.initializers", "class_name": "Ones", "config": {}, "registered_name": null}, "beta_regularizer": null, "gamma_regularizer": null, "beta_constraint": null, "gamma_constraint": null}, "registered_name": null, "build_config": {"input_shape": [null, 28, 28, 40]}, "name": "expanded_conv_3/project/BatchNorm", "inbound_nodes": [[["expanded_conv_3/project", 0, 0, {}]]]}, {"module": "keras.layers", "class_name": "Conv2D", "config": {"name": "expanded_conv_4/expand", "trainable": false, "dtype": "float32", "filters": 120, "kernel_size": [1, 1], "strides": [1, 1], "padding": "same", "data_format": "channels_last", "dilation_rate": [1, 1], "groups": 1, "activation": "linear", "use_bias": false, "kernel_initializer": {"module": "keras.initializers", "class_name": "GlorotUniform", "config": {"seed": null}, "registered_name": null}, "bias_initializer": {"module": "keras.initializers", "class_name": "Zeros", "config": {}, "registered_name": null}, "kernel_regularizer": null, "bias_regularizer": null, "activity_regularizer": null, "kernel_constraint": null, "bias_constraint": null}, "registered_name": null, "build_config": {"input_shape": [null, 28, 28, 40]}, "name": "expanded_conv_4/expand", "inbound_nodes": [[["expanded_conv_3/project/BatchNorm", 0, 0, {}]]]}, {"module": "keras.layers", "class_name": "BatchNormalization", "config": {"name": "expanded_conv_4/expand/BatchNorm", "trainable": false, "dtype": "float32", "axis": [3], "momentum": 0.999, "epsilon": 0.001, "center": true, "scale": true, "beta_initializer": {"module": "keras.initializers", "class_name": "Zeros", "config": {}, "registered_name": null}, "gamma_initializer": {"module": "keras.initializers", "class_name": "Ones", "config": {}, "registered_name": null}, "moving_mean_initializer": {"module": "keras.initializers", "class_name": "Zeros", "config": {}, "registered_name": null}, "moving_variance_initializer": {"module": "keras.initializers", "class_name": "Ones", "config": {}, "registered_name": null}, "beta_regularizer": null, "gamma_regularizer": null, "beta_constraint": null, "gamma_constraint": null}, "registered_name": null, "build_config": {"input_shape": [null, 28, 28, 120]}, "name": "expanded_conv_4/expand/BatchNorm", "inbound_nodes": [[["expanded_conv_4/expand", 0, 0, {}]]]}, {"module": "keras.layers", "class_name": "ReLU", "config": {"name": "re_lu_87", "trainable": false, "dtype": "float32", "max_value": null, "negative_slope": 0.0, "threshold": 0.0}, "registered_name": null, "build_config": {"input_shape": [null, 28, 28, 120]}, "name": "re_lu_87", "inbound_nodes": [[["expanded_conv_4/expand/BatchNorm", 0, 0, {}]]]}, {"module": "keras.layers", "class_name": "DepthwiseConv2D", "config": {"name": "expanded_conv_4/depthwise", "trainable": false, "dtype": "float32", "kernel_size": [5, 5], "strides": [1, 1], "padding": "same", "data_format": "channels_last", "dilation_rate": [1, 1], "groups": 1, "activation": "linear", "use_bias": false, "bias_initializer": {"module": "keras.initializers", "class_name": "Zeros", "config": {}, "registered_name": null}, "bias_regularizer": null, "activity_regularizer": null, "bias_constraint": null, "depth_multiplier": 1, "depthwise_initializer": {"module": "keras.initializers", "class_name": "GlorotUniform", "config": {"seed": null}, "registered_name": null}, "depthwise_regularizer": null, "depthwise_constraint": null}, "registered_name": null, "build_config": {"input_shape": [null, 28, 28, 120]}, "name": "expanded_conv_4/depthwise", "inbound_nodes": [[["re_lu_87", 0, 0, {}]]]}, {"module": "keras.layers", "class_name": "BatchNormalization", "config": {"name": "expanded_conv_4/depthwise/BatchNorm", "trainable": false, "dtype": "float32", "axis": [3], "momentum": 0.999, "epsilon": 0.001, "center": true, "scale": true, "beta_initializer": {"module": "keras.initializers", "class_name": "Zeros", "config": {}, "registered_name": null}, "gamma_initializer": {"module": "keras.initializers", "class_name": "Ones", "config": {}, "registered_name": null}, "moving_mean_initializer": {"module": "keras.initializers", "class_name": "Zeros", "config": {}, "registered_name": null}, "moving_variance_initializer": {"module": "keras.initializers", "class_name": "Ones", "config": {}, "registered_name": null}, "beta_regularizer": null, "gamma_regularizer": null, "beta_constraint": null, "gamma_constraint": null}, "registered_name": null, "build_config": {"input_shape": [null, 28, 28, 120]}, "name": "expanded_conv_4/depthwise/BatchNorm", "inbound_nodes": [[["expanded_conv_4/depthwise", 0, 0, {}]]]}, {"module": "keras.layers", "class_name": "ReLU", "config": {"name": "re_lu_88", "trainable": false, "dtype": "float32", "max_value": null, "negative_slope": 0.0, "threshold": 0.0}, "registered_name": null, "build_config": {"input_shape": [null, 28, 28, 120]}, "name": "re_lu_88", "inbound_nodes": [[["expanded_conv_4/depthwise/BatchNorm", 0, 0, {}]]]}, {"module": "keras.layers", "class_name": "GlobalAveragePooling2D", "config": {"name": "expanded_conv_4/squeeze_excite/AvgPool", "trainable": false, "dtype": "float32", "data_format": "channels_last", "keepdims": true}, "registered_name": null, "build_config": {"input_shape": [null, 28, 28, 120]}, "name": "expanded_conv_4/squeeze_excite/AvgPool", "inbound_nodes": [[["re_lu_88", 0, 0, {}]]]}, {"module": "keras.layers", "class_name": "Conv2D", "config": {"name": "expanded_conv_4/squeeze_excite/Conv", "trainable": false, "dtype": "float32", "filters": 32, "kernel_size": [1, 1], "strides": [1, 1], "padding": "same", "data_format": "channels_last", "dilation_rate": [1, 1], "groups": 1, "activation": "linear", "use_bias": true, "kernel_initializer": {"module": "keras.initializers", "class_name": "GlorotUniform", "config": {"seed": null}, "registered_name": null}, "bias_initializer": {"module": "keras.initializers", "class_name": "Zeros", "config": {}, "registered_name": null}, "kernel_regularizer": null, "bias_regularizer": null, "activity_regularizer": null, "kernel_constraint": null, "bias_constraint": null}, "registered_name": null, "build_config": {"input_shape": [null, 1, 1, 120]}, "name": "expanded_conv_4/squeeze_excite/Conv", "inbound_nodes": [[["expanded_conv_4/squeeze_excite/AvgPool", 0, 0, {}]]]}, {"module": "keras.layers", "class_name": "ReLU", "config": {"name": "expanded_conv_4/squeeze_excite/Relu", "trainable": false, "dtype": "float32", "max_value": null, "negative_slope": 0.0, "threshold": 0.0}, "registered_name": null, "build_config": {"input_shape": [null, 1, 1, 32]}, "name": "expanded_conv_4/squeeze_excite/Relu", "inbound_nodes": [[["expanded_conv_4/squeeze_excite/Conv", 0, 0, {}]]]}, {"module": "keras.layers", "class_name": "Conv2D", "config": {"name": "expanded_conv_4/squeeze_excite/Conv_1", "trainable": false, "dtype": "float32", "filters": 120, "kernel_size": [1, 1], "strides": [1, 1], "padding": "same", "data_format": "channels_last", "dilation_rate": [1, 1], "groups": 1, "activation": "linear", "use_bias": true, "kernel_initializer": {"module": "keras.initializers", "class_name": "GlorotUniform", "config": {"seed": null}, "registered_name": null}, "bias_initializer": {"module": "keras.initializers", "class_name": "Zeros", "config": {}, "registered_name": null}, "kernel_regularizer": null, "bias_regularizer": null, "activity_regularizer": null, "kernel_constraint": null, "bias_constraint": null}, "registered_name": null, "build_config": {"input_shape": [null, 1, 1, 32]}, "name": "expanded_conv_4/squeeze_excite/Conv_1", "inbound_nodes": [[["expanded_conv_4/squeeze_excite/Relu", 0, 0, {}]]]}, {"module": "keras.src.layers.core.tf_op_layer", "class_name": "TFOpLambda", "config": {"name": "tf.__operators__.add_58", "trainable": false, "dtype": "float32", "function": "__operators__.add"}, "registered_name": "TFOpLambda", "build_config": {"input_shape": [null, 1, 1, 120]}, "name": "tf.__operators__.add_58", "inbound_nodes": [["expanded_conv_4/squeeze_excite/Conv_1", 0, 0, {"y": 3.0, "name": null}]]}, {"module": "keras.layers", "class_name": "ReLU", "config": {"name": "re_lu_89", "trainable": false, "dtype": "float32", "max_value": 6.0, "negative_slope": 0.0, "threshold": 0.0}, "registered_name": null, "build_config": {"input_shape": [null, 1, 1, 120]}, "name": "re_lu_89", "inbound_nodes": [[["tf.__operators__.add_58", 0, 0, {}]]]}, {"module": "keras.src.layers.core.tf_op_layer", "class_name": "TFOpLambda", "config": {"name": "tf.math.multiply_58", "trainable": false, "dtype": "float32", "function": "math.multiply"}, "registered_name": "TFOpLambda", "build_config": {"input_shape": [null, 1, 1, 120]}, "name": "tf.math.multiply_58", "inbound_nodes": [["re_lu_89", 0, 0, {"y": 0.16666666666666666, "name": null}]]}, {"module": "keras.layers", "class_name": "Multiply", "config": {"name": "expanded_conv_4/squeeze_excite/Mul", "trainable": false, "dtype": "float32"}, "registered_name": null, "build_config": {"input_shape": [[null, 28, 28, 120], [null, 1, 1, 120]]}, "name": "expanded_conv_4/squeeze_excite/Mul", "inbound_nodes": [[["re_lu_88", 0, 0, {}], ["tf.math.multiply_58", 0, 0, {}]]]}, {"module": "keras.layers", "class_name": "Conv2D", "config": {"name": "expanded_conv_4/project", "trainable": false, "dtype": "float32", "filters": 40, "kernel_size": [1, 1], "strides": [1, 1], "padding": "same", "data_format": "channels_last", "dilation_rate": [1, 1], "groups": 1, "activation": "linear", "use_bias": false, "kernel_initializer": {"module": "keras.initializers", "class_name": "GlorotUniform", "config": {"seed": null}, "registered_name": null}, "bias_initializer": {"module": "keras.initializers", "class_name": "Zeros", "config": {}, "registered_name": null}, "kernel_regularizer": null, "bias_regularizer": null, "activity_regularizer": null, "kernel_constraint": null, "bias_constraint": null}, "registered_name": null, "build_config": {"input_shape": [null, 28, 28, 120]}, "name": "expanded_conv_4/project", "inbound_nodes": [[["expanded_conv_4/squeeze_excite/Mul", 0, 0, {}]]]}, {"module": "keras.layers", "class_name": "BatchNormalization", "config": {"name": "expanded_conv_4/project/BatchNorm", "trainable": false, "dtype": "float32", "axis": [3], "momentum": 0.999, "epsilon": 0.001, "center": true, "scale": true, "beta_initializer": {"module": "keras.initializers", "class_name": "Zeros", "config": {}, "registered_name": null}, "gamma_initializer": {"module": "keras.initializers", "class_name": "Ones", "config": {}, "registered_name": null}, "moving_mean_initializer": {"module": "keras.initializers", "class_name": "Zeros", "config": {}, "registered_name": null}, "moving_variance_initializer": {"module": "keras.initializers", "class_name": "Ones", "config": {}, "registered_name": null}, "beta_regularizer": null, "gamma_regularizer": null, "beta_constraint": null, "gamma_constraint": null}, "registered_name": null, "build_config": {"input_shape": [null, 28, 28, 40]}, "name": "expanded_conv_4/project/BatchNorm", "inbound_nodes": [[["expanded_conv_4/project", 0, 0, {}]]]}, {"module": "keras.layers", "class_name": "Add", "config": {"name": "expanded_conv_4/Add", "trainable": false, "dtype": "float32"}, "registered_name": null, "build_config": {"input_shape": [[null, 28, 28, 40], [null, 28, 28, 40]]}, "name": "expanded_conv_4/Add", "inbound_nodes": [[["expanded_conv_3/project/BatchNorm", 0, 0, {}], ["expanded_conv_4/project/BatchNorm", 0, 0, {}]]]}, {"module": "keras.layers", "class_name": "Conv2D", "config": {"name": "expanded_conv_5/expand", "trainable": false, "dtype": "float32", "filters": 120, "kernel_size": [1, 1], "strides": [1, 1], "padding": "same", "data_format": "channels_last", "dilation_rate": [1, 1], "groups": 1, "activation": "linear", "use_bias": false, "kernel_initializer": {"module": "keras.initializers", "class_name": "GlorotUniform", "config": {"seed": null}, "registered_name": null}, "bias_initializer": {"module": "keras.initializers", "class_name": "Zeros", "config": {}, "registered_name": null}, "kernel_regularizer": null, "bias_regularizer": null, "activity_regularizer": null, "kernel_constraint": null, "bias_constraint": null}, "registered_name": null, "build_config": {"input_shape": [null, 28, 28, 40]}, "name": "expanded_conv_5/expand", "inbound_nodes": [[["expanded_conv_4/Add", 0, 0, {}]]]}, {"module": "keras.layers", "class_name": "BatchNormalization", "config": {"name": "expanded_conv_5/expand/BatchNorm", "trainable": false, "dtype": "float32", "axis": [3], "momentum": 0.999, "epsilon": 0.001, "center": true, "scale": true, "beta_initializer": {"module": "keras.initializers", "class_name": "Zeros", "config": {}, "registered_name": null}, "gamma_initializer": {"module": "keras.initializers", "class_name": "Ones", "config": {}, "registered_name": null}, "moving_mean_initializer": {"module": "keras.initializers", "class_name": "Zeros", "config": {}, "registered_name": null}, "moving_variance_initializer": {"module": "keras.initializers", "class_name": "Ones", "config": {}, "registered_name": null}, "beta_regularizer": null, "gamma_regularizer": null, "beta_constraint": null, "gamma_constraint": null}, "registered_name": null, "build_config": {"input_shape": [null, 28, 28, 120]}, "name": "expanded_conv_5/expand/BatchNorm", "inbound_nodes": [[["expanded_conv_5/expand", 0, 0, {}]]]}, {"module": "keras.layers", "class_name": "ReLU", "config": {"name": "re_lu_90", "trainable": false, "dtype": "float32", "max_value": null, "negative_slope": 0.0, "threshold": 0.0}, "registered_name": null, "build_config": {"input_shape": [null, 28, 28, 120]}, "name": "re_lu_90", "inbound_nodes": [[["expanded_conv_5/expand/BatchNorm", 0, 0, {}]]]}, {"module": "keras.layers", "class_name": "DepthwiseConv2D", "config": {"name": "expanded_conv_5/depthwise", "trainable": false, "dtype": "float32", "kernel_size": [5, 5], "strides": [1, 1], "padding": "same", "data_format": "channels_last", "dilation_rate": [1, 1], "groups": 1, "activation": "linear", "use_bias": false, "bias_initializer": {"module": "keras.initializers", "class_name": "Zeros", "config": {}, "registered_name": null}, "bias_regularizer": null, "activity_regularizer": null, "bias_constraint": null, "depth_multiplier": 1, "depthwise_initializer": {"module": "keras.initializers", "class_name": "GlorotUniform", "config": {"seed": null}, "registered_name": null}, "depthwise_regularizer": null, "depthwise_constraint": null}, "registered_name": null, "build_config": {"input_shape": [null, 28, 28, 120]}, "name": "expanded_conv_5/depthwise", "inbound_nodes": [[["re_lu_90", 0, 0, {}]]]}, {"module": "keras.layers", "class_name": "BatchNormalization", "config": {"name": "expanded_conv_5/depthwise/BatchNorm", "trainable": false, "dtype": "float32", "axis": [3], "momentum": 0.999, "epsilon": 0.001, "center": true, "scale": true, "beta_initializer": {"module": "keras.initializers", "class_name": "Zeros", "config": {}, "registered_name": null}, "gamma_initializer": {"module": "keras.initializers", "class_name": "Ones", "config": {}, "registered_name": null}, "moving_mean_initializer": {"module": "keras.initializers", "class_name": "Zeros", "config": {}, "registered_name": null}, "moving_variance_initializer": {"module": "keras.initializers", "class_name": "Ones", "config": {}, "registered_name": null}, "beta_regularizer": null, "gamma_regularizer": null, "beta_constraint": null, "gamma_constraint": null}, "registered_name": null, "build_config": {"input_shape": [null, 28, 28, 120]}, "name": "expanded_conv_5/depthwise/BatchNorm", "inbound_nodes": [[["expanded_conv_5/depthwise", 0, 0, {}]]]}, {"module": "keras.layers", "class_name": "ReLU", "config": {"name": "re_lu_91", "trainable": false, "dtype": "float32", "max_value": null, "negative_slope": 0.0, "threshold": 0.0}, "registered_name": null, "build_config": {"input_shape": [null, 28, 28, 120]}, "name": "re_lu_91", "inbound_nodes": [[["expanded_conv_5/depthwise/BatchNorm", 0, 0, {}]]]}, {"module": "keras.layers", "class_name": "GlobalAveragePooling2D", "config": {"name": "expanded_conv_5/squeeze_excite/AvgPool", "trainable": false, "dtype": "float32", "data_format": "channels_last", "keepdims": true}, "registered_name": null, "build_config": {"input_shape": [null, 28, 28, 120]}, "name": "expanded_conv_5/squeeze_excite/AvgPool", "inbound_nodes": [[["re_lu_91", 0, 0, {}]]]}, {"module": "keras.layers", "class_name": "Conv2D", "config": {"name": "expanded_conv_5/squeeze_excite/Conv", "trainable": false, "dtype": "float32", "filters": 32, "kernel_size": [1, 1], "strides": [1, 1], "padding": "same", "data_format": "channels_last", "dilation_rate": [1, 1], "groups": 1, "activation": "linear", "use_bias": true, "kernel_initializer": {"module": "keras.initializers", "class_name": "GlorotUniform", "config": {"seed": null}, "registered_name": null}, "bias_initializer": {"module": "keras.initializers", "class_name": "Zeros", "config": {}, "registered_name": null}, "kernel_regularizer": null, "bias_regularizer": null, "activity_regularizer": null, "kernel_constraint": null, "bias_constraint": null}, "registered_name": null, "build_config": {"input_shape": [null, 1, 1, 120]}, "name": "expanded_conv_5/squeeze_excite/Conv", "inbound_nodes": [[["expanded_conv_5/squeeze_excite/AvgPool", 0, 0, {}]]]}, {"module": "keras.layers", "class_name": "ReLU", "config": {"name": "expanded_conv_5/squeeze_excite/Relu", "trainable": false, "dtype": "float32", "max_value": null, "negative_slope": 0.0, "threshold": 0.0}, "registered_name": null, "build_config": {"input_shape": [null, 1, 1, 32]}, "name": "expanded_conv_5/squeeze_excite/Relu", "inbound_nodes": [[["expanded_conv_5/squeeze_excite/Conv", 0, 0, {}]]]}, {"module": "keras.layers", "class_name": "Conv2D", "config": {"name": "expanded_conv_5/squeeze_excite/Conv_1", "trainable": false, "dtype": "float32", "filters": 120, "kernel_size": [1, 1], "strides": [1, 1], "padding": "same", "data_format": "channels_last", "dilation_rate": [1, 1], "groups": 1, "activation": "linear", "use_bias": true, "kernel_initializer": {"module": "keras.initializers", "class_name": "GlorotUniform", "config": {"seed": null}, "registered_name": null}, "bias_initializer": {"module": "keras.initializers", "class_name": "Zeros", "config": {}, "registered_name": null}, "kernel_regularizer": null, "bias_regularizer": null, "activity_regularizer": null, "kernel_constraint": null, "bias_constraint": null}, "registered_name": null, "build_config": {"input_shape": [null, 1, 1, 32]}, "name": "expanded_conv_5/squeeze_excite/Conv_1", "inbound_nodes": [[["expanded_conv_5/squeeze_excite/Relu", 0, 0, {}]]]}, {"module": "keras.src.layers.core.tf_op_layer", "class_name": "TFOpLambda", "config": {"name": "tf.__operators__.add_59", "trainable": false, "dtype": "float32", "function": "__operators__.add"}, "registered_name": "TFOpLambda", "build_config": {"input_shape": [null, 1, 1, 120]}, "name": "tf.__operators__.add_59", "inbound_nodes": [["expanded_conv_5/squeeze_excite/Conv_1", 0, 0, {"y": 3.0, "name": null}]]}, {"module": "keras.layers", "class_name": "ReLU", "config": {"name": "re_lu_92", "trainable": false, "dtype": "float32", "max_value": 6.0, "negative_slope": 0.0, "threshold": 0.0}, "registered_name": null, "build_config": {"input_shape": [null, 1, 1, 120]}, "name": "re_lu_92", "inbound_nodes": [[["tf.__operators__.add_59", 0, 0, {}]]]}, {"module": "keras.src.layers.core.tf_op_layer", "class_name": "TFOpLambda", "config": {"name": "tf.math.multiply_59", "trainable": false, "dtype": "float32", "function": "math.multiply"}, "registered_name": "TFOpLambda", "build_config": {"input_shape": [null, 1, 1, 120]}, "name": "tf.math.multiply_59", "inbound_nodes": [["re_lu_92", 0, 0, {"y": 0.16666666666666666, "name": null}]]}, {"module": "keras.layers", "class_name": "Multiply", "config": {"name": "expanded_conv_5/squeeze_excite/Mul", "trainable": false, "dtype": "float32"}, "registered_name": null, "build_config": {"input_shape": [[null, 28, 28, 120], [null, 1, 1, 120]]}, "name": "expanded_conv_5/squeeze_excite/Mul", "inbound_nodes": [[["re_lu_91", 0, 0, {}], ["tf.math.multiply_59", 0, 0, {}]]]}, {"module": "keras.layers", "class_name": "Conv2D", "config": {"name": "expanded_conv_5/project", "trainable": false, "dtype": "float32", "filters": 40, "kernel_size": [1, 1], "strides": [1, 1], "padding": "same", "data_format": "channels_last", "dilation_rate": [1, 1], "groups": 1, "activation": "linear", "use_bias": false, "kernel_initializer": {"module": "keras.initializers", "class_name": "GlorotUniform", "config": {"seed": null}, "registered_name": null}, "bias_initializer": {"module": "keras.initializers", "class_name": "Zeros", "config": {}, "registered_name": null}, "kernel_regularizer": null, "bias_regularizer": null, "activity_regularizer": null, "kernel_constraint": null, "bias_constraint": null}, "registered_name": null, "build_config": {"input_shape": [null, 28, 28, 120]}, "name": "expanded_conv_5/project", "inbound_nodes": [[["expanded_conv_5/squeeze_excite/Mul", 0, 0, {}]]]}, {"module": "keras.layers", "class_name": "BatchNormalization", "config": {"name": "expanded_conv_5/project/BatchNorm", "trainable": false, "dtype": "float32", "axis": [3], "momentum": 0.999, "epsilon": 0.001, "center": true, "scale": true, "beta_initializer": {"module": "keras.initializers", "class_name": "Zeros", "config": {}, "registered_name": null}, "gamma_initializer": {"module": "keras.initializers", "class_name": "Ones", "config": {}, "registered_name": null}, "moving_mean_initializer": {"module": "keras.initializers", "class_name": "Zeros", "config": {}, "registered_name": null}, "moving_variance_initializer": {"module": "keras.initializers", "class_name": "Ones", "config": {}, "registered_name": null}, "beta_regularizer": null, "gamma_regularizer": null, "beta_constraint": null, "gamma_constraint": null}, "registered_name": null, "build_config": {"input_shape": [null, 28, 28, 40]}, "name": "expanded_conv_5/project/BatchNorm", "inbound_nodes": [[["expanded_conv_5/project", 0, 0, {}]]]}, {"module": "keras.layers", "class_name": "Add", "config": {"name": "expanded_conv_5/Add", "trainable": false, "dtype": "float32"}, "registered_name": null, "build_config": {"input_shape": [[null, 28, 28, 40], [null, 28, 28, 40]]}, "name": "expanded_conv_5/Add", "inbound_nodes": [[["expanded_conv_4/Add", 0, 0, {}], ["expanded_conv_5/project/BatchNorm", 0, 0, {}]]]}, {"module": "keras.layers", "class_name": "Conv2D", "config": {"name": "expanded_conv_6/expand", "trainable": false, "dtype": "float32", "filters": 240, "kernel_size": [1, 1], "strides": [1, 1], "padding": "same", "data_format": "channels_last", "dilation_rate": [1, 1], "groups": 1, "activation": "linear", "use_bias": false, "kernel_initializer": {"module": "keras.initializers", "class_name": "GlorotUniform", "config": {"seed": null}, "registered_name": null}, "bias_initializer": {"module": "keras.initializers", "class_name": "Zeros", "config": {}, "registered_name": null}, "kernel_regularizer": null, "bias_regularizer": null, "activity_regularizer": null, "kernel_constraint": null, "bias_constraint": null}, "registered_name": null, "build_config": {"input_shape": [null, 28, 28, 40]}, "name": "expanded_conv_6/expand", "inbound_nodes": [[["expanded_conv_5/Add", 0, 0, {}]]]}, {"module": "keras.layers", "class_name": "BatchNormalization", "config": {"name": "expanded_conv_6/expand/BatchNorm", "trainable": false, "dtype": "float32", "axis": [3], "momentum": 0.999, "epsilon": 0.001, "center": true, "scale": true, "beta_initializer": {"module": "keras.initializers", "class_name": "Zeros", "config": {}, "registered_name": null}, "gamma_initializer": {"module": "keras.initializers", "class_name": "Ones", "config": {}, "registered_name": null}, "moving_mean_initializer": {"module": "keras.initializers", "class_name": "Zeros", "config": {}, "registered_name": null}, "moving_variance_initializer": {"module": "keras.initializers", "class_name": "Ones", "config": {}, "registered_name": null}, "beta_regularizer": null, "gamma_regularizer": null, "beta_constraint": null, "gamma_constraint": null}, "registered_name": null, "build_config": {"input_shape": [null, 28, 28, 240]}, "name": "expanded_conv_6/expand/BatchNorm", "inbound_nodes": [[["expanded_conv_6/expand", 0, 0, {}]]]}, {"module": "keras.src.layers.core.tf_op_layer", "class_name": "TFOpLambda", "config": {"name": "tf.__operators__.add_60", "trainable": false, "dtype": "float32", "function": "__operators__.add"}, "registered_name": "TFOpLambda", "build_config": {"input_shape": [null, 28, 28, 240]}, "name": "tf.__operators__.add_60", "inbound_nodes": [["expanded_conv_6/expand/BatchNorm", 0, 0, {"y": 3.0, "name": null}]]}, {"module": "keras.layers", "class_name": "ReLU", "config": {"name": "re_lu_93", "trainable": false, "dtype": "float32", "max_value": 6.0, "negative_slope": 0.0, "threshold": 0.0}, "registered_name": null, "build_config": {"input_shape": [null, 28, 28, 240]}, "name": "re_lu_93", "inbound_nodes": [[["tf.__operators__.add_60", 0, 0, {}]]]}, {"module": "keras.src.layers.core.tf_op_layer", "class_name": "TFOpLambda", "config": {"name": "tf.math.multiply_60", "trainable": false, "dtype": "float32", "function": "math.multiply"}, "registered_name": "TFOpLambda", "build_config": {"input_shape": [null, 28, 28, 240]}, "name": "tf.math.multiply_60", "inbound_nodes": [["re_lu_93", 0, 0, {"y": 0.16666666666666666, "name": null}]]}, {"module": "keras.layers", "class_name": "Multiply", "config": {"name": "multiply_41", "trainable": false, "dtype": "float32"}, "registered_name": null, "build_config": {"input_shape": [[null, 28, 28, 240], [null, 28, 28, 240]]}, "name": "multiply_41", "inbound_nodes": [[["expanded_conv_6/expand/BatchNorm", 0, 0, {}], ["tf.math.multiply_60", 0, 0, {}]]]}, {"module": "keras.layers", "class_name": "ZeroPadding2D", "config": {"name": "expanded_conv_6/depthwise/pad", "trainable": false, "dtype": "float32", "padding": [[0, 1], [0, 1]], "data_format": "channels_last"}, "registered_name": null, "build_config": {"input_shape": [null, 28, 28, 240]}, "name": "expanded_conv_6/depthwise/pad", "inbound_nodes": [[["multiply_41", 0, 0, {}]]]}, {"module": "keras.layers", "class_name": "DepthwiseConv2D", "config": {"name": "expanded_conv_6/depthwise", "trainable": false, "dtype": "float32", "kernel_size": [3, 3], "strides": [2, 2], "padding": "valid", "data_format": "channels_last", "dilation_rate": [1, 1], "groups": 1, "activation": "linear", "use_bias": false, "bias_initializer": {"module": "keras.initializers", "class_name": "Zeros", "config": {}, "registered_name": null}, "bias_regularizer": null, "activity_regularizer": null, "bias_constraint": null, "depth_multiplier": 1, "depthwise_initializer": {"module": "keras.initializers", "class_name": "GlorotUniform", "config": {"seed": null}, "registered_name": null}, "depthwise_regularizer": null, "depthwise_constraint": null}, "registered_name": null, "build_config": {"input_shape": [null, 29, 29, 240]}, "name": "expanded_conv_6/depthwise", "inbound_nodes": [[["expanded_conv_6/depthwise/pad", 0, 0, {}]]]}, {"module": "keras.layers", "class_name": "BatchNormalization", "config": {"name": "expanded_conv_6/depthwise/BatchNorm", "trainable": false, "dtype": "float32", "axis": [3], "momentum": 0.999, "epsilon": 0.001, "center": true, "scale": true, "beta_initializer": {"module": "keras.initializers", "class_name": "Zeros", "config": {}, "registered_name": null}, "gamma_initializer": {"module": "keras.initializers", "class_name": "Ones", "config": {}, "registered_name": null}, "moving_mean_initializer": {"module": "keras.initializers", "class_name": "Zeros", "config": {}, "registered_name": null}, "moving_variance_initializer": {"module": "keras.initializers", "class_name": "Ones", "config": {}, "registered_name": null}, "beta_regularizer": null, "gamma_regularizer": null, "beta_constraint": null, "gamma_constraint": null}, "registered_name": null, "build_config": {"input_shape": [null, 14, 14, 240]}, "name": "expanded_conv_6/depthwise/BatchNorm", "inbound_nodes": [[["expanded_conv_6/depthwise", 0, 0, {}]]]}, {"module": "keras.src.layers.core.tf_op_layer", "class_name": "TFOpLambda", "config": {"name": "tf.__operators__.add_61", "trainable": false, "dtype": "float32", "function": "__operators__.add"}, "registered_name": "TFOpLambda", "build_config": {"input_shape": [null, 14, 14, 240]}, "name": "tf.__operators__.add_61", "inbound_nodes": [["expanded_conv_6/depthwise/BatchNorm", 0, 0, {"y": 3.0, "name": null}]]}, {"module": "keras.layers", "class_name": "ReLU", "config": {"name": "re_lu_94", "trainable": false, "dtype": "float32", "max_value": 6.0, "negative_slope": 0.0, "threshold": 0.0}, "registered_name": null, "build_config": {"input_shape": [null, 14, 14, 240]}, "name": "re_lu_94", "inbound_nodes": [[["tf.__operators__.add_61", 0, 0, {}]]]}, {"module": "keras.src.layers.core.tf_op_layer", "class_name": "TFOpLambda", "config": {"name": "tf.math.multiply_61", "trainable": false, "dtype": "float32", "function": "math.multiply"}, "registered_name": "TFOpLambda", "build_config": {"input_shape": [null, 14, 14, 240]}, "name": "tf.math.multiply_61", "inbound_nodes": [["re_lu_94", 0, 0, {"y": 0.16666666666666666, "name": null}]]}, {"module": "keras.layers", "class_name": "Multiply", "config": {"name": "multiply_42", "trainable": false, "dtype": "float32"}, "registered_name": null, "build_config": {"input_shape": [[null, 14, 14, 240], [null, 14, 14, 240]]}, "name": "multiply_42", "inbound_nodes": [[["expanded_conv_6/depthwise/BatchNorm", 0, 0, {}], ["tf.math.multiply_61", 0, 0, {}]]]}, {"module": "keras.layers", "class_name": "Conv2D", "config": {"name": "expanded_conv_6/project", "trainable": false, "dtype": "float32", "filters": 80, "kernel_size": [1, 1], "strides": [1, 1], "padding": "same", "data_format": "channels_last", "dilation_rate": [1, 1], "groups": 1, "activation": "linear", "use_bias": false, "kernel_initializer": {"module": "keras.initializers", "class_name": "GlorotUniform", "config": {"seed": null}, "registered_name": null}, "bias_initializer": {"module": "keras.initializers", "class_name": "Zeros", "config": {}, "registered_name": null}, "kernel_regularizer": null, "bias_regularizer": null, "activity_regularizer": null, "kernel_constraint": null, "bias_constraint": null}, "registered_name": null, "build_config": {"input_shape": [null, 14, 14, 240]}, "name": "expanded_conv_6/project", "inbound_nodes": [[["multiply_42", 0, 0, {}]]]}, {"module": "keras.layers", "class_name": "BatchNormalization", "config": {"name": "expanded_conv_6/project/BatchNorm", "trainable": false, "dtype": "float32", "axis": [3], "momentum": 0.999, "epsilon": 0.001, "center": true, "scale": true, "beta_initializer": {"module": "keras.initializers", "class_name": "Zeros", "config": {}, "registered_name": null}, "gamma_initializer": {"module": "keras.initializers", "class_name": "Ones", "config": {}, "registered_name": null}, "moving_mean_initializer": {"module": "keras.initializers", "class_name": "Zeros", "config": {}, "registered_name": null}, "moving_variance_initializer": {"module": "keras.initializers", "class_name": "Ones", "config": {}, "registered_name": null}, "beta_regularizer": null, "gamma_regularizer": null, "beta_constraint": null, "gamma_constraint": null}, "registered_name": null, "build_config": {"input_shape": [null, 14, 14, 80]}, "name": "expanded_conv_6/project/BatchNorm", "inbound_nodes": [[["expanded_conv_6/project", 0, 0, {}]]]}, {"module": "keras.layers", "class_name": "Conv2D", "config": {"name": "expanded_conv_7/expand", "trainable": false, "dtype": "float32", "filters": 200, "kernel_size": [1, 1], "strides": [1, 1], "padding": "same", "data_format": "channels_last", "dilation_rate": [1, 1], "groups": 1, "activation": "linear", "use_bias": false, "kernel_initializer": {"module": "keras.initializers", "class_name": "GlorotUniform", "config": {"seed": null}, "registered_name": null}, "bias_initializer": {"module": "keras.initializers", "class_name": "Zeros", "config": {}, "registered_name": null}, "kernel_regularizer": null, "bias_regularizer": null, "activity_regularizer": null, "kernel_constraint": null, "bias_constraint": null}, "registered_name": null, "build_config": {"input_shape": [null, 14, 14, 80]}, "name": "expanded_conv_7/expand", "inbound_nodes": [[["expanded_conv_6/project/BatchNorm", 0, 0, {}]]]}, {"module": "keras.layers", "class_name": "BatchNormalization", "config": {"name": "expanded_conv_7/expand/BatchNorm", "trainable": false, "dtype": "float32", "axis": [3], "momentum": 0.999, "epsilon": 0.001, "center": true, "scale": true, "beta_initializer": {"module": "keras.initializers", "class_name": "Zeros", "config": {}, "registered_name": null}, "gamma_initializer": {"module": "keras.initializers", "class_name": "Ones", "config": {}, "registered_name": null}, "moving_mean_initializer": {"module": "keras.initializers", "class_name": "Zeros", "config": {}, "registered_name": null}, "moving_variance_initializer": {"module": "keras.initializers", "class_name": "Ones", "config": {}, "registered_name": null}, "beta_regularizer": null, "gamma_regularizer": null, "beta_constraint": null, "gamma_constraint": null}, "registered_name": null, "build_config": {"input_shape": [null, 14, 14, 200]}, "name": "expanded_conv_7/expand/BatchNorm", "inbound_nodes": [[["expanded_conv_7/expand", 0, 0, {}]]]}, {"module": "keras.src.layers.core.tf_op_layer", "class_name": "TFOpLambda", "config": {"name": "tf.__operators__.add_62", "trainable": false, "dtype": "float32", "function": "__operators__.add"}, "registered_name": "TFOpLambda", "build_config": {"input_shape": [null, 14, 14, 200]}, "name": "tf.__operators__.add_62", "inbound_nodes": [["expanded_conv_7/expand/BatchNorm", 0, 0, {"y": 3.0, "name": null}]]}, {"module": "keras.layers", "class_name": "ReLU", "config": {"name": "re_lu_95", "trainable": false, "dtype": "float32", "max_value": 6.0, "negative_slope": 0.0, "threshold": 0.0}, "registered_name": null, "build_config": {"input_shape": [null, 14, 14, 200]}, "name": "re_lu_95", "inbound_nodes": [[["tf.__operators__.add_62", 0, 0, {}]]]}, {"module": "keras.src.layers.core.tf_op_layer", "class_name": "TFOpLambda", "config": {"name": "tf.math.multiply_62", "trainable": false, "dtype": "float32", "function": "math.multiply"}, "registered_name": "TFOpLambda", "build_config": {"input_shape": [null, 14, 14, 200]}, "name": "tf.math.multiply_62", "inbound_nodes": [["re_lu_95", 0, 0, {"y": 0.16666666666666666, "name": null}]]}, {"module": "keras.layers", "class_name": "Multiply", "config": {"name": "multiply_43", "trainable": false, "dtype": "float32"}, "registered_name": null, "build_config": {"input_shape": [[null, 14, 14, 200], [null, 14, 14, 200]]}, "name": "multiply_43", "inbound_nodes": [[["expanded_conv_7/expand/BatchNorm", 0, 0, {}], ["tf.math.multiply_62", 0, 0, {}]]]}, {"module": "keras.layers", "class_name": "DepthwiseConv2D", "config": {"name": "expanded_conv_7/depthwise", "trainable": false, "dtype": "float32", "kernel_size": [3, 3], "strides": [1, 1], "padding": "same", "data_format": "channels_last", "dilation_rate": [1, 1], "groups": 1, "activation": "linear", "use_bias": false, "bias_initializer": {"module": "keras.initializers", "class_name": "Zeros", "config": {}, "registered_name": null}, "bias_regularizer": null, "activity_regularizer": null, "bias_constraint": null, "depth_multiplier": 1, "depthwise_initializer": {"module": "keras.initializers", "class_name": "GlorotUniform", "config": {"seed": null}, "registered_name": null}, "depthwise_regularizer": null, "depthwise_constraint": null}, "registered_name": null, "build_config": {"input_shape": [null, 14, 14, 200]}, "name": "expanded_conv_7/depthwise", "inbound_nodes": [[["multiply_43", 0, 0, {}]]]}, {"module": "keras.layers", "class_name": "BatchNormalization", "config": {"name": "expanded_conv_7/depthwise/BatchNorm", "trainable": false, "dtype": "float32", "axis": [3], "momentum": 0.999, "epsilon": 0.001, "center": true, "scale": true, "beta_initializer": {"module": "keras.initializers", "class_name": "Zeros", "config": {}, "registered_name": null}, "gamma_initializer": {"module": "keras.initializers", "class_name": "Ones", "config": {}, "registered_name": null}, "moving_mean_initializer": {"module": "keras.initializers", "class_name": "Zeros", "config": {}, "registered_name": null}, "moving_variance_initializer": {"module": "keras.initializers", "class_name": "Ones", "config": {}, "registered_name": null}, "beta_regularizer": null, "gamma_regularizer": null, "beta_constraint": null, "gamma_constraint": null}, "registered_name": null, "build_config": {"input_shape": [null, 14, 14, 200]}, "name": "expanded_conv_7/depthwise/BatchNorm", "inbound_nodes": [[["expanded_conv_7/depthwise", 0, 0, {}]]]}, {"module": "keras.src.layers.core.tf_op_layer", "class_name": "TFOpLambda", "config": {"name": "tf.__operators__.add_63", "trainable": false, "dtype": "float32", "function": "__operators__.add"}, "registered_name": "TFOpLambda", "build_config": {"input_shape": [null, 14, 14, 200]}, "name": "tf.__operators__.add_63", "inbound_nodes": [["expanded_conv_7/depthwise/BatchNorm", 0, 0, {"y": 3.0, "name": null}]]}, {"module": "keras.layers", "class_name": "ReLU", "config": {"name": "re_lu_96", "trainable": false, "dtype": "float32", "max_value": 6.0, "negative_slope": 0.0, "threshold": 0.0}, "registered_name": null, "build_config": {"input_shape": [null, 14, 14, 200]}, "name": "re_lu_96", "inbound_nodes": [[["tf.__operators__.add_63", 0, 0, {}]]]}, {"module": "keras.src.layers.core.tf_op_layer", "class_name": "TFOpLambda", "config": {"name": "tf.math.multiply_63", "trainable": false, "dtype": "float32", "function": "math.multiply"}, "registered_name": "TFOpLambda", "build_config": {"input_shape": [null, 14, 14, 200]}, "name": "tf.math.multiply_63", "inbound_nodes": [["re_lu_96", 0, 0, {"y": 0.16666666666666666, "name": null}]]}, {"module": "keras.layers", "class_name": "Multiply", "config": {"name": "multiply_44", "trainable": false, "dtype": "float32"}, "registered_name": null, "build_config": {"input_shape": [[null, 14, 14, 200], [null, 14, 14, 200]]}, "name": "multiply_44", "inbound_nodes": [[["expanded_conv_7/depthwise/BatchNorm", 0, 0, {}], ["tf.math.multiply_63", 0, 0, {}]]]}, {"module": "keras.layers", "class_name": "Conv2D", "config": {"name": "expanded_conv_7/project", "trainable": false, "dtype": "float32", "filters": 80, "kernel_size": [1, 1], "strides": [1, 1], "padding": "same", "data_format": "channels_last", "dilation_rate": [1, 1], "groups": 1, "activation": "linear", "use_bias": false, "kernel_initializer": {"module": "keras.initializers", "class_name": "GlorotUniform", "config": {"seed": null}, "registered_name": null}, "bias_initializer": {"module": "keras.initializers", "class_name": "Zeros", "config": {}, "registered_name": null}, "kernel_regularizer": null, "bias_regularizer": null, "activity_regularizer": null, "kernel_constraint": null, "bias_constraint": null}, "registered_name": null, "build_config": {"input_shape": [null, 14, 14, 200]}, "name": "expanded_conv_7/project", "inbound_nodes": [[["multiply_44", 0, 0, {}]]]}, {"module": "keras.layers", "class_name": "BatchNormalization", "config": {"name": "expanded_conv_7/project/BatchNorm", "trainable": false, "dtype": "float32", "axis": [3], "momentum": 0.999, "epsilon": 0.001, "center": true, "scale": true, "beta_initializer": {"module": "keras.initializers", "class_name": "Zeros", "config": {}, "registered_name": null}, "gamma_initializer": {"module": "keras.initializers", "class_name": "Ones", "config": {}, "registered_name": null}, "moving_mean_initializer": {"module": "keras.initializers", "class_name": "Zeros", "config": {}, "registered_name": null}, "moving_variance_initializer": {"module": "keras.initializers", "class_name": "Ones", "config": {}, "registered_name": null}, "beta_regularizer": null, "gamma_regularizer": null, "beta_constraint": null, "gamma_constraint": null}, "registered_name": null, "build_config": {"input_shape": [null, 14, 14, 80]}, "name": "expanded_conv_7/project/BatchNorm", "inbound_nodes": [[["expanded_conv_7/project", 0, 0, {}]]]}, {"module": "keras.layers", "class_name": "Add", "config": {"name": "expanded_conv_7/Add", "trainable": false, "dtype": "float32"}, "registered_name": null, "build_config": {"input_shape": [[null, 14, 14, 80], [null, 14, 14, 80]]}, "name": "expanded_conv_7/Add", "inbound_nodes": [[["expanded_conv_6/project/BatchNorm", 0, 0, {}], ["expanded_conv_7/project/BatchNorm", 0, 0, {}]]]}, {"module": "keras.layers", "class_name": "Conv2D", "config": {"name": "expanded_conv_8/expand", "trainable": false, "dtype": "float32", "filters": 184, "kernel_size": [1, 1], "strides": [1, 1], "padding": "same", "data_format": "channels_last", "dilation_rate": [1, 1], "groups": 1, "activation": "linear", "use_bias": false, "kernel_initializer": {"module": "keras.initializers", "class_name": "GlorotUniform", "config": {"seed": null}, "registered_name": null}, "bias_initializer": {"module": "keras.initializers", "class_name": "Zeros", "config": {}, "registered_name": null}, "kernel_regularizer": null, "bias_regularizer": null, "activity_regularizer": null, "kernel_constraint": null, "bias_constraint": null}, "registered_name": null, "build_config": {"input_shape": [null, 14, 14, 80]}, "name": "expanded_conv_8/expand", "inbound_nodes": [[["expanded_conv_7/Add", 0, 0, {}]]]}, {"module": "keras.layers", "class_name": "BatchNormalization", "config": {"name": "expanded_conv_8/expand/BatchNorm", "trainable": false, "dtype": "float32", "axis": [3], "momentum": 0.999, "epsilon": 0.001, "center": true, "scale": true, "beta_initializer": {"module": "keras.initializers", "class_name": "Zeros", "config": {}, "registered_name": null}, "gamma_initializer": {"module": "keras.initializers", "class_name": "Ones", "config": {}, "registered_name": null}, "moving_mean_initializer": {"module": "keras.initializers", "class_name": "Zeros", "config": {}, "registered_name": null}, "moving_variance_initializer": {"module": "keras.initializers", "class_name": "Ones", "config": {}, "registered_name": null}, "beta_regularizer": null, "gamma_regularizer": null, "beta_constraint": null, "gamma_constraint": null}, "registered_name": null, "build_config": {"input_shape": [null, 14, 14, 184]}, "name": "expanded_conv_8/expand/BatchNorm", "inbound_nodes": [[["expanded_conv_8/expand", 0, 0, {}]]]}, {"module": "keras.src.layers.core.tf_op_layer", "class_name": "TFOpLambda", "config": {"name": "tf.__operators__.add_64", "trainable": false, "dtype": "float32", "function": "__operators__.add"}, "registered_name": "TFOpLambda", "build_config": {"input_shape": [null, 14, 14, 184]}, "name": "tf.__operators__.add_64", "inbound_nodes": [["expanded_conv_8/expand/BatchNorm", 0, 0, {"y": 3.0, "name": null}]]}, {"module": "keras.layers", "class_name": "ReLU", "config": {"name": "re_lu_97", "trainable": false, "dtype": "float32", "max_value": 6.0, "negative_slope": 0.0, "threshold": 0.0}, "registered_name": null, "build_config": {"input_shape": [null, 14, 14, 184]}, "name": "re_lu_97", "inbound_nodes": [[["tf.__operators__.add_64", 0, 0, {}]]]}, {"module": "keras.src.layers.core.tf_op_layer", "class_name": "TFOpLambda", "config": {"name": "tf.math.multiply_64", "trainable": false, "dtype": "float32", "function": "math.multiply"}, "registered_name": "TFOpLambda", "build_config": {"input_shape": [null, 14, 14, 184]}, "name": "tf.math.multiply_64", "inbound_nodes": [["re_lu_97", 0, 0, {"y": 0.16666666666666666, "name": null}]]}, {"module": "keras.layers", "class_name": "Multiply", "config": {"name": "multiply_45", "trainable": false, "dtype": "float32"}, "registered_name": null, "build_config": {"input_shape": [[null, 14, 14, 184], [null, 14, 14, 184]]}, "name": "multiply_45", "inbound_nodes": [[["expanded_conv_8/expand/BatchNorm", 0, 0, {}], ["tf.math.multiply_64", 0, 0, {}]]]}, {"module": "keras.layers", "class_name": "DepthwiseConv2D", "config": {"name": "expanded_conv_8/depthwise", "trainable": false, "dtype": "float32", "kernel_size": [3, 3], "strides": [1, 1], "padding": "same", "data_format": "channels_last", "dilation_rate": [1, 1], "groups": 1, "activation": "linear", "use_bias": false, "bias_initializer": {"module": "keras.initializers", "class_name": "Zeros", "config": {}, "registered_name": null}, "bias_regularizer": null, "activity_regularizer": null, "bias_constraint": null, "depth_multiplier": 1, "depthwise_initializer": {"module": "keras.initializers", "class_name": "GlorotUniform", "config": {"seed": null}, "registered_name": null}, "depthwise_regularizer": null, "depthwise_constraint": null}, "registered_name": null, "build_config": {"input_shape": [null, 14, 14, 184]}, "name": "expanded_conv_8/depthwise", "inbound_nodes": [[["multiply_45", 0, 0, {}]]]}, {"module": "keras.layers", "class_name": "BatchNormalization", "config": {"name": "expanded_conv_8/depthwise/BatchNorm", "trainable": false, "dtype": "float32", "axis": [3], "momentum": 0.999, "epsilon": 0.001, "center": true, "scale": true, "beta_initializer": {"module": "keras.initializers", "class_name": "Zeros", "config": {}, "registered_name": null}, "gamma_initializer": {"module": "keras.initializers", "class_name": "Ones", "config": {}, "registered_name": null}, "moving_mean_initializer": {"module": "keras.initializers", "class_name": "Zeros", "config": {}, "registered_name": null}, "moving_variance_initializer": {"module": "keras.initializers", "class_name": "Ones", "config": {}, "registered_name": null}, "beta_regularizer": null, "gamma_regularizer": null, "beta_constraint": null, "gamma_constraint": null}, "registered_name": null, "build_config": {"input_shape": [null, 14, 14, 184]}, "name": "expanded_conv_8/depthwise/BatchNorm", "inbound_nodes": [[["expanded_conv_8/depthwise", 0, 0, {}]]]}, {"module": "keras.src.layers.core.tf_op_layer", "class_name": "TFOpLambda", "config": {"name": "tf.__operators__.add_65", "trainable": false, "dtype": "float32", "function": "__operators__.add"}, "registered_name": "TFOpLambda", "build_config": {"input_shape": [null, 14, 14, 184]}, "name": "tf.__operators__.add_65", "inbound_nodes": [["expanded_conv_8/depthwise/BatchNorm", 0, 0, {"y": 3.0, "name": null}]]}, {"module": "keras.layers", "class_name": "ReLU", "config": {"name": "re_lu_98", "trainable": false, "dtype": "float32", "max_value": 6.0, "negative_slope": 0.0, "threshold": 0.0}, "registered_name": null, "build_config": {"input_shape": [null, 14, 14, 184]}, "name": "re_lu_98", "inbound_nodes": [[["tf.__operators__.add_65", 0, 0, {}]]]}, {"module": "keras.src.layers.core.tf_op_layer", "class_name": "TFOpLambda", "config": {"name": "tf.math.multiply_65", "trainable": false, "dtype": "float32", "function": "math.multiply"}, "registered_name": "TFOpLambda", "build_config": {"input_shape": [null, 14, 14, 184]}, "name": "tf.math.multiply_65", "inbound_nodes": [["re_lu_98", 0, 0, {"y": 0.16666666666666666, "name": null}]]}, {"module": "keras.layers", "class_name": "Multiply", "config": {"name": "multiply_46", "trainable": false, "dtype": "float32"}, "registered_name": null, "build_config": {"input_shape": [[null, 14, 14, 184], [null, 14, 14, 184]]}, "name": "multiply_46", "inbound_nodes": [[["expanded_conv_8/depthwise/BatchNorm", 0, 0, {}], ["tf.math.multiply_65", 0, 0, {}]]]}, {"module": "keras.layers", "class_name": "Conv2D", "config": {"name": "expanded_conv_8/project", "trainable": false, "dtype": "float32", "filters": 80, "kernel_size": [1, 1], "strides": [1, 1], "padding": "same", "data_format": "channels_last", "dilation_rate": [1, 1], "groups": 1, "activation": "linear", "use_bias": false, "kernel_initializer": {"module": "keras.initializers", "class_name": "GlorotUniform", "config": {"seed": null}, "registered_name": null}, "bias_initializer": {"module": "keras.initializers", "class_name": "Zeros", "config": {}, "registered_name": null}, "kernel_regularizer": null, "bias_regularizer": null, "activity_regularizer": null, "kernel_constraint": null, "bias_constraint": null}, "registered_name": null, "build_config": {"input_shape": [null, 14, 14, 184]}, "name": "expanded_conv_8/project", "inbound_nodes": [[["multiply_46", 0, 0, {}]]]}, {"module": "keras.layers", "class_name": "BatchNormalization", "config": {"name": "expanded_conv_8/project/BatchNorm", "trainable": false, "dtype": "float32", "axis": [3], "momentum": 0.999, "epsilon": 0.001, "center": true, "scale": true, "beta_initializer": {"module": "keras.initializers", "class_name": "Zeros", "config": {}, "registered_name": null}, "gamma_initializer": {"module": "keras.initializers", "class_name": "Ones", "config": {}, "registered_name": null}, "moving_mean_initializer": {"module": "keras.initializers", "class_name": "Zeros", "config": {}, "registered_name": null}, "moving_variance_initializer": {"module": "keras.initializers", "class_name": "Ones", "config": {}, "registered_name": null}, "beta_regularizer": null, "gamma_regularizer": null, "beta_constraint": null, "gamma_constraint": null}, "registered_name": null, "build_config": {"input_shape": [null, 14, 14, 80]}, "name": "expanded_conv_8/project/BatchNorm", "inbound_nodes": [[["expanded_conv_8/project", 0, 0, {}]]]}, {"module": "keras.layers", "class_name": "Add", "config": {"name": "expanded_conv_8/Add", "trainable": false, "dtype": "float32"}, "registered_name": null, "build_config": {"input_shape": [[null, 14, 14, 80], [null, 14, 14, 80]]}, "name": "expanded_conv_8/Add", "inbound_nodes": [[["expanded_conv_7/Add", 0, 0, {}], ["expanded_conv_8/project/BatchNorm", 0, 0, {}]]]}, {"module": "keras.layers", "class_name": "Conv2D", "config": {"name": "expanded_conv_9/expand", "trainable": false, "dtype": "float32", "filters": 184, "kernel_size": [1, 1], "strides": [1, 1], "padding": "same", "data_format": "channels_last", "dilation_rate": [1, 1], "groups": 1, "activation": "linear", "use_bias": false, "kernel_initializer": {"module": "keras.initializers", "class_name": "GlorotUniform", "config": {"seed": null}, "registered_name": null}, "bias_initializer": {"module": "keras.initializers", "class_name": "Zeros", "config": {}, "registered_name": null}, "kernel_regularizer": null, "bias_regularizer": null, "activity_regularizer": null, "kernel_constraint": null, "bias_constraint": null}, "registered_name": null, "build_config": {"input_shape": [null, 14, 14, 80]}, "name": "expanded_conv_9/expand", "inbound_nodes": [[["expanded_conv_8/Add", 0, 0, {}]]]}, {"module": "keras.layers", "class_name": "BatchNormalization", "config": {"name": "expanded_conv_9/expand/BatchNorm", "trainable": false, "dtype": "float32", "axis": [3], "momentum": 0.999, "epsilon": 0.001, "center": true, "scale": true, "beta_initializer": {"module": "keras.initializers", "class_name": "Zeros", "config": {}, "registered_name": null}, "gamma_initializer": {"module": "keras.initializers", "class_name": "Ones", "config": {}, "registered_name": null}, "moving_mean_initializer": {"module": "keras.initializers", "class_name": "Zeros", "config": {}, "registered_name": null}, "moving_variance_initializer": {"module": "keras.initializers", "class_name": "Ones", "config": {}, "registered_name": null}, "beta_regularizer": null, "gamma_regularizer": null, "beta_constraint": null, "gamma_constraint": null}, "registered_name": null, "build_config": {"input_shape": [null, 14, 14, 184]}, "name": "expanded_conv_9/expand/BatchNorm", "inbound_nodes": [[["expanded_conv_9/expand", 0, 0, {}]]]}, {"module": "keras.src.layers.core.tf_op_layer", "class_name": "TFOpLambda", "config": {"name": "tf.__operators__.add_66", "trainable": false, "dtype": "float32", "function": "__operators__.add"}, "registered_name": "TFOpLambda", "build_config": {"input_shape": [null, 14, 14, 184]}, "name": "tf.__operators__.add_66", "inbound_nodes": [["expanded_conv_9/expand/BatchNorm", 0, 0, {"y": 3.0, "name": null}]]}, {"module": "keras.layers", "class_name": "ReLU", "config": {"name": "re_lu_99", "trainable": false, "dtype": "float32", "max_value": 6.0, "negative_slope": 0.0, "threshold": 0.0}, "registered_name": null, "build_config": {"input_shape": [null, 14, 14, 184]}, "name": "re_lu_99", "inbound_nodes": [[["tf.__operators__.add_66", 0, 0, {}]]]}, {"module": "keras.src.layers.core.tf_op_layer", "class_name": "TFOpLambda", "config": {"name": "tf.math.multiply_66", "trainable": false, "dtype": "float32", "function": "math.multiply"}, "registered_name": "TFOpLambda", "build_config": {"input_shape": [null, 14, 14, 184]}, "name": "tf.math.multiply_66", "inbound_nodes": [["re_lu_99", 0, 0, {"y": 0.16666666666666666, "name": null}]]}, {"module": "keras.layers", "class_name": "Multiply", "config": {"name": "multiply_47", "trainable": false, "dtype": "float32"}, "registered_name": null, "build_config": {"input_shape": [[null, 14, 14, 184], [null, 14, 14, 184]]}, "name": "multiply_47", "inbound_nodes": [[["expanded_conv_9/expand/BatchNorm", 0, 0, {}], ["tf.math.multiply_66", 0, 0, {}]]]}, {"module": "keras.layers", "class_name": "DepthwiseConv2D", "config": {"name": "expanded_conv_9/depthwise", "trainable": false, "dtype": "float32", "kernel_size": [3, 3], "strides": [1, 1], "padding": "same", "data_format": "channels_last", "dilation_rate": [1, 1], "groups": 1, "activation": "linear", "use_bias": false, "bias_initializer": {"module": "keras.initializers", "class_name": "Zeros", "config": {}, "registered_name": null}, "bias_regularizer": null, "activity_regularizer": null, "bias_constraint": null, "depth_multiplier": 1, "depthwise_initializer": {"module": "keras.initializers", "class_name": "GlorotUniform", "config": {"seed": null}, "registered_name": null}, "depthwise_regularizer": null, "depthwise_constraint": null}, "registered_name": null, "build_config": {"input_shape": [null, 14, 14, 184]}, "name": "expanded_conv_9/depthwise", "inbound_nodes": [[["multiply_47", 0, 0, {}]]]}, {"module": "keras.layers", "class_name": "BatchNormalization", "config": {"name": "expanded_conv_9/depthwise/BatchNorm", "trainable": false, "dtype": "float32", "axis": [3], "momentum": 0.999, "epsilon": 0.001, "center": true, "scale": true, "beta_initializer": {"module": "keras.initializers", "class_name": "Zeros", "config": {}, "registered_name": null}, "gamma_initializer": {"module": "keras.initializers", "class_name": "Ones", "config": {}, "registered_name": null}, "moving_mean_initializer": {"module": "keras.initializers", "class_name": "Zeros", "config": {}, "registered_name": null}, "moving_variance_initializer": {"module": "keras.initializers", "class_name": "Ones", "config": {}, "registered_name": null}, "beta_regularizer": null, "gamma_regularizer": null, "beta_constraint": null, "gamma_constraint": null}, "registered_name": null, "build_config": {"input_shape": [null, 14, 14, 184]}, "name": "expanded_conv_9/depthwise/BatchNorm", "inbound_nodes": [[["expanded_conv_9/depthwise", 0, 0, {}]]]}, {"module": "keras.src.layers.core.tf_op_layer", "class_name": "TFOpLambda", "config": {"name": "tf.__operators__.add_67", "trainable": false, "dtype": "float32", "function": "__operators__.add"}, "registered_name": "TFOpLambda", "build_config": {"input_shape": [null, 14, 14, 184]}, "name": "tf.__operators__.add_67", "inbound_nodes": [["expanded_conv_9/depthwise/BatchNorm", 0, 0, {"y": 3.0, "name": null}]]}, {"module": "keras.layers", "class_name": "ReLU", "config": {"name": "re_lu_100", "trainable": false, "dtype": "float32", "max_value": 6.0, "negative_slope": 0.0, "threshold": 0.0}, "registered_name": null, "build_config": {"input_shape": [null, 14, 14, 184]}, "name": "re_lu_100", "inbound_nodes": [[["tf.__operators__.add_67", 0, 0, {}]]]}, {"module": "keras.src.layers.core.tf_op_layer", "class_name": "TFOpLambda", "config": {"name": "tf.math.multiply_67", "trainable": false, "dtype": "float32", "function": "math.multiply"}, "registered_name": "TFOpLambda", "build_config": {"input_shape": [null, 14, 14, 184]}, "name": "tf.math.multiply_67", "inbound_nodes": [["re_lu_100", 0, 0, {"y": 0.16666666666666666, "name": null}]]}, {"module": "keras.layers", "class_name": "Multiply", "config": {"name": "multiply_48", "trainable": false, "dtype": "float32"}, "registered_name": null, "build_config": {"input_shape": [[null, 14, 14, 184], [null, 14, 14, 184]]}, "name": "multiply_48", "inbound_nodes": [[["expanded_conv_9/depthwise/BatchNorm", 0, 0, {}], ["tf.math.multiply_67", 0, 0, {}]]]}, {"module": "keras.layers", "class_name": "Conv2D", "config": {"name": "expanded_conv_9/project", "trainable": false, "dtype": "float32", "filters": 80, "kernel_size": [1, 1], "strides": [1, 1], "padding": "same", "data_format": "channels_last", "dilation_rate": [1, 1], "groups": 1, "activation": "linear", "use_bias": false, "kernel_initializer": {"module": "keras.initializers", "class_name": "GlorotUniform", "config": {"seed": null}, "registered_name": null}, "bias_initializer": {"module": "keras.initializers", "class_name": "Zeros", "config": {}, "registered_name": null}, "kernel_regularizer": null, "bias_regularizer": null, "activity_regularizer": null, "kernel_constraint": null, "bias_constraint": null}, "registered_name": null, "build_config": {"input_shape": [null, 14, 14, 184]}, "name": "expanded_conv_9/project", "inbound_nodes": [[["multiply_48", 0, 0, {}]]]}, {"module": "keras.layers", "class_name": "BatchNormalization", "config": {"name": "expanded_conv_9/project/BatchNorm", "trainable": false, "dtype": "float32", "axis": [3], "momentum": 0.999, "epsilon": 0.001, "center": true, "scale": true, "beta_initializer": {"module": "keras.initializers", "class_name": "Zeros", "config": {}, "registered_name": null}, "gamma_initializer": {"module": "keras.initializers", "class_name": "Ones", "config": {}, "registered_name": null}, "moving_mean_initializer": {"module": "keras.initializers", "class_name": "Zeros", "config": {}, "registered_name": null}, "moving_variance_initializer": {"module": "keras.initializers", "class_name": "Ones", "config": {}, "registered_name": null}, "beta_regularizer": null, "gamma_regularizer": null, "beta_constraint": null, "gamma_constraint": null}, "registered_name": null, "build_config": {"input_shape": [null, 14, 14, 80]}, "name": "expanded_conv_9/project/BatchNorm", "inbound_nodes": [[["expanded_conv_9/project", 0, 0, {}]]]}, {"module": "keras.layers", "class_name": "Add", "config": {"name": "expanded_conv_9/Add", "trainable": false, "dtype": "float32"}, "registered_name": null, "build_config": {"input_shape": [[null, 14, 14, 80], [null, 14, 14, 80]]}, "name": "expanded_conv_9/Add", "inbound_nodes": [[["expanded_conv_8/Add", 0, 0, {}], ["expanded_conv_9/project/BatchNorm", 0, 0, {}]]]}, {"module": "keras.layers", "class_name": "Conv2D", "config": {"name": "expanded_conv_10/expand", "trainable": false, "dtype": "float32", "filters": 480, "kernel_size": [1, 1], "strides": [1, 1], "padding": "same", "data_format": "channels_last", "dilation_rate": [1, 1], "groups": 1, "activation": "linear", "use_bias": false, "kernel_initializer": {"module": "keras.initializers", "class_name": "GlorotUniform", "config": {"seed": null}, "registered_name": null}, "bias_initializer": {"module": "keras.initializers", "class_name": "Zeros", "config": {}, "registered_name": null}, "kernel_regularizer": null, "bias_regularizer": null, "activity_regularizer": null, "kernel_constraint": null, "bias_constraint": null}, "registered_name": null, "build_config": {"input_shape": [null, 14, 14, 80]}, "name": "expanded_conv_10/expand", "inbound_nodes": [[["expanded_conv_9/Add", 0, 0, {}]]]}, {"module": "keras.layers", "class_name": "BatchNormalization", "config": {"name": "expanded_conv_10/expand/BatchNorm", "trainable": false, "dtype": "float32", "axis": [3], "momentum": 0.999, "epsilon": 0.001, "center": true, "scale": true, "beta_initializer": {"module": "keras.initializers", "class_name": "Zeros", "config": {}, "registered_name": null}, "gamma_initializer": {"module": "keras.initializers", "class_name": "Ones", "config": {}, "registered_name": null}, "moving_mean_initializer": {"module": "keras.initializers", "class_name": "Zeros", "config": {}, "registered_name": null}, "moving_variance_initializer": {"module": "keras.initializers", "class_name": "Ones", "config": {}, "registered_name": null}, "beta_regularizer": null, "gamma_regularizer": null, "beta_constraint": null, "gamma_constraint": null}, "registered_name": null, "build_config": {"input_shape": [null, 14, 14, 480]}, "name": "expanded_conv_10/expand/BatchNorm", "inbound_nodes": [[["expanded_conv_10/expand", 0, 0, {}]]]}, {"module": "keras.src.layers.core.tf_op_layer", "class_name": "TFOpLambda", "config": {"name": "tf.__operators__.add_68", "trainable": false, "dtype": "float32", "function": "__operators__.add"}, "registered_name": "TFOpLambda", "build_config": {"input_shape": [null, 14, 14, 480]}, "name": "tf.__operators__.add_68", "inbound_nodes": [["expanded_conv_10/expand/BatchNorm", 0, 0, {"y": 3.0, "name": null}]]}, {"module": "keras.layers", "class_name": "ReLU", "config": {"name": "re_lu_101", "trainable": false, "dtype": "float32", "max_value": 6.0, "negative_slope": 0.0, "threshold": 0.0}, "registered_name": null, "build_config": {"input_shape": [null, 14, 14, 480]}, "name": "re_lu_101", "inbound_nodes": [[["tf.__operators__.add_68", 0, 0, {}]]]}, {"module": "keras.src.layers.core.tf_op_layer", "class_name": "TFOpLambda", "config": {"name": "tf.math.multiply_68", "trainable": false, "dtype": "float32", "function": "math.multiply"}, "registered_name": "TFOpLambda", "build_config": {"input_shape": [null, 14, 14, 480]}, "name": "tf.math.multiply_68", "inbound_nodes": [["re_lu_101", 0, 0, {"y": 0.16666666666666666, "name": null}]]}, {"module": "keras.layers", "class_name": "Multiply", "config": {"name": "multiply_49", "trainable": false, "dtype": "float32"}, "registered_name": null, "build_config": {"input_shape": [[null, 14, 14, 480], [null, 14, 14, 480]]}, "name": "multiply_49", "inbound_nodes": [[["expanded_conv_10/expand/BatchNorm", 0, 0, {}], ["tf.math.multiply_68", 0, 0, {}]]]}, {"module": "keras.layers", "class_name": "DepthwiseConv2D", "config": {"name": "expanded_conv_10/depthwise", "trainable": false, "dtype": "float32", "kernel_size": [3, 3], "strides": [1, 1], "padding": "same", "data_format": "channels_last", "dilation_rate": [1, 1], "groups": 1, "activation": "linear", "use_bias": false, "bias_initializer": {"module": "keras.initializers", "class_name": "Zeros", "config": {}, "registered_name": null}, "bias_regularizer": null, "activity_regularizer": null, "bias_constraint": null, "depth_multiplier": 1, "depthwise_initializer": {"module": "keras.initializers", "class_name": "GlorotUniform", "config": {"seed": null}, "registered_name": null}, "depthwise_regularizer": null, "depthwise_constraint": null}, "registered_name": null, "build_config": {"input_shape": [null, 14, 14, 480]}, "name": "expanded_conv_10/depthwise", "inbound_nodes": [[["multiply_49", 0, 0, {}]]]}, {"module": "keras.layers", "class_name": "BatchNormalization", "config": {"name": "expanded_conv_10/depthwise/BatchNorm", "trainable": false, "dtype": "float32", "axis": [3], "momentum": 0.999, "epsilon": 0.001, "center": true, "scale": true, "beta_initializer": {"module": "keras.initializers", "class_name": "Zeros", "config": {}, "registered_name": null}, "gamma_initializer": {"module": "keras.initializers", "class_name": "Ones", "config": {}, "registered_name": null}, "moving_mean_initializer": {"module": "keras.initializers", "class_name": "Zeros", "config": {}, "registered_name": null}, "moving_variance_initializer": {"module": "keras.initializers", "class_name": "Ones", "config": {}, "registered_name": null}, "beta_regularizer": null, "gamma_regularizer": null, "beta_constraint": null, "gamma_constraint": null}, "registered_name": null, "build_config": {"input_shape": [null, 14, 14, 480]}, "name": "expanded_conv_10/depthwise/BatchNorm", "inbound_nodes": [[["expanded_conv_10/depthwise", 0, 0, {}]]]}, {"module": "keras.src.layers.core.tf_op_layer", "class_name": "TFOpLambda", "config": {"name": "tf.__operators__.add_69", "trainable": false, "dtype": "float32", "function": "__operators__.add"}, "registered_name": "TFOpLambda", "build_config": {"input_shape": [null, 14, 14, 480]}, "name": "tf.__operators__.add_69", "inbound_nodes": [["expanded_conv_10/depthwise/BatchNorm", 0, 0, {"y": 3.0, "name": null}]]}, {"module": "keras.layers", "class_name": "ReLU", "config": {"name": "re_lu_102", "trainable": false, "dtype": "float32", "max_value": 6.0, "negative_slope": 0.0, "threshold": 0.0}, "registered_name": null, "build_config": {"input_shape": [null, 14, 14, 480]}, "name": "re_lu_102", "inbound_nodes": [[["tf.__operators__.add_69", 0, 0, {}]]]}, {"module": "keras.src.layers.core.tf_op_layer", "class_name": "TFOpLambda", "config": {"name": "tf.math.multiply_69", "trainable": false, "dtype": "float32", "function": "math.multiply"}, "registered_name": "TFOpLambda", "build_config": {"input_shape": [null, 14, 14, 480]}, "name": "tf.math.multiply_69", "inbound_nodes": [["re_lu_102", 0, 0, {"y": 0.16666666666666666, "name": null}]]}, {"module": "keras.layers", "class_name": "Multiply", "config": {"name": "multiply_50", "trainable": false, "dtype": "float32"}, "registered_name": null, "build_config": {"input_shape": [[null, 14, 14, 480], [null, 14, 14, 480]]}, "name": "multiply_50", "inbound_nodes": [[["expanded_conv_10/depthwise/BatchNorm", 0, 0, {}], ["tf.math.multiply_69", 0, 0, {}]]]}, {"module": "keras.layers", "class_name": "GlobalAveragePooling2D", "config": {"name": "expanded_conv_10/squeeze_excite/AvgPool", "trainable": false, "dtype": "float32", "data_format": "channels_last", "keepdims": true}, "registered_name": null, "build_config": {"input_shape": [null, 14, 14, 480]}, "name": "expanded_conv_10/squeeze_excite/AvgPool", "inbound_nodes": [[["multiply_50", 0, 0, {}]]]}, {"module": "keras.layers", "class_name": "Conv2D", "config": {"name": "expanded_conv_10/squeeze_excite/Conv", "trainable": false, "dtype": "float32", "filters": 120, "kernel_size": [1, 1], "strides": [1, 1], "padding": "same", "data_format": "channels_last", "dilation_rate": [1, 1], "groups": 1, "activation": "linear", "use_bias": true, "kernel_initializer": {"module": "keras.initializers", "class_name": "GlorotUniform", "config": {"seed": null}, "registered_name": null}, "bias_initializer": {"module": "keras.initializers", "class_name": "Zeros", "config": {}, "registered_name": null}, "kernel_regularizer": null, "bias_regularizer": null, "activity_regularizer": null, "kernel_constraint": null, "bias_constraint": null}, "registered_name": null, "build_config": {"input_shape": [null, 1, 1, 480]}, "name": "expanded_conv_10/squeeze_excite/Conv", "inbound_nodes": [[["expanded_conv_10/squeeze_excite/AvgPool", 0, 0, {}]]]}, {"module": "keras.layers", "class_name": "ReLU", "config": {"name": "expanded_conv_10/squeeze_excite/Relu", "trainable": false, "dtype": "float32", "max_value": null, "negative_slope": 0.0, "threshold": 0.0}, "registered_name": null, "build_config": {"input_shape": [null, 1, 1, 120]}, "name": "expanded_conv_10/squeeze_excite/Relu", "inbound_nodes": [[["expanded_conv_10/squeeze_excite/Conv", 0, 0, {}]]]}, {"module": "keras.layers", "class_name": "Conv2D", "config": {"name": "expanded_conv_10/squeeze_excite/Conv_1", "trainable": false, "dtype": "float32", "filters": 480, "kernel_size": [1, 1], "strides": [1, 1], "padding": "same", "data_format": "channels_last", "dilation_rate": [1, 1], "groups": 1, "activation": "linear", "use_bias": true, "kernel_initializer": {"module": "keras.initializers", "class_name": "GlorotUniform", "config": {"seed": null}, "registered_name": null}, "bias_initializer": {"module": "keras.initializers", "class_name": "Zeros", "config": {}, "registered_name": null}, "kernel_regularizer": null, "bias_regularizer": null, "activity_regularizer": null, "kernel_constraint": null, "bias_constraint": null}, "registered_name": null, "build_config": {"input_shape": [null, 1, 1, 120]}, "name": "expanded_conv_10/squeeze_excite/Conv_1", "inbound_nodes": [[["expanded_conv_10/squeeze_excite/Relu", 0, 0, {}]]]}, {"module": "keras.src.layers.core.tf_op_layer", "class_name": "TFOpLambda", "config": {"name": "tf.__operators__.add_70", "trainable": false, "dtype": "float32", "function": "__operators__.add"}, "registered_name": "TFOpLambda", "build_config": {"input_shape": [null, 1, 1, 480]}, "name": "tf.__operators__.add_70", "inbound_nodes": [["expanded_conv_10/squeeze_excite/Conv_1", 0, 0, {"y": 3.0, "name": null}]]}, {"module": "keras.layers", "class_name": "ReLU", "config": {"name": "re_lu_103", "trainable": false, "dtype": "float32", "max_value": 6.0, "negative_slope": 0.0, "threshold": 0.0}, "registered_name": null, "build_config": {"input_shape": [null, 1, 1, 480]}, "name": "re_lu_103", "inbound_nodes": [[["tf.__operators__.add_70", 0, 0, {}]]]}, {"module": "keras.src.layers.core.tf_op_layer", "class_name": "TFOpLambda", "config": {"name": "tf.math.multiply_70", "trainable": false, "dtype": "float32", "function": "math.multiply"}, "registered_name": "TFOpLambda", "build_config": {"input_shape": [null, 1, 1, 480]}, "name": "tf.math.multiply_70", "inbound_nodes": [["re_lu_103", 0, 0, {"y": 0.16666666666666666, "name": null}]]}, {"module": "keras.layers", "class_name": "Multiply", "config": {"name": "expanded_conv_10/squeeze_excite/Mul", "trainable": false, "dtype": "float32"}, "registered_name": null, "build_config": {"input_shape": [[null, 14, 14, 480], [null, 1, 1, 480]]}, "name": "expanded_conv_10/squeeze_excite/Mul", "inbound_nodes": [[["multiply_50", 0, 0, {}], ["tf.math.multiply_70", 0, 0, {}]]]}, {"module": "keras.layers", "class_name": "Conv2D", "config": {"name": "expanded_conv_10/project", "trainable": false, "dtype": "float32", "filters": 112, "kernel_size": [1, 1], "strides": [1, 1], "padding": "same", "data_format": "channels_last", "dilation_rate": [1, 1], "groups": 1, "activation": "linear", "use_bias": false, "kernel_initializer": {"module": "keras.initializers", "class_name": "GlorotUniform", "config": {"seed": null}, "registered_name": null}, "bias_initializer": {"module": "keras.initializers", "class_name": "Zeros", "config": {}, "registered_name": null}, "kernel_regularizer": null, "bias_regularizer": null, "activity_regularizer": null, "kernel_constraint": null, "bias_constraint": null}, "registered_name": null, "build_config": {"input_shape": [null, 14, 14, 480]}, "name": "expanded_conv_10/project", "inbound_nodes": [[["expanded_conv_10/squeeze_excite/Mul", 0, 0, {}]]]}, {"module": "keras.layers", "class_name": "BatchNormalization", "config": {"name": "expanded_conv_10/project/BatchNorm", "trainable": false, "dtype": "float32", "axis": [3], "momentum": 0.999, "epsilon": 0.001, "center": true, "scale": true, "beta_initializer": {"module": "keras.initializers", "class_name": "Zeros", "config": {}, "registered_name": null}, "gamma_initializer": {"module": "keras.initializers", "class_name": "Ones", "config": {}, "registered_name": null}, "moving_mean_initializer": {"module": "keras.initializers", "class_name": "Zeros", "config": {}, "registered_name": null}, "moving_variance_initializer": {"module": "keras.initializers", "class_name": "Ones", "config": {}, "registered_name": null}, "beta_regularizer": null, "gamma_regularizer": null, "beta_constraint": null, "gamma_constraint": null}, "registered_name": null, "build_config": {"input_shape": [null, 14, 14, 112]}, "name": "expanded_conv_10/project/BatchNorm", "inbound_nodes": [[["expanded_conv_10/project", 0, 0, {}]]]}, {"module": "keras.layers", "class_name": "Conv2D", "config": {"name": "expanded_conv_11/expand", "trainable": false, "dtype": "float32", "filters": 672, "kernel_size": [1, 1], "strides": [1, 1], "padding": "same", "data_format": "channels_last", "dilation_rate": [1, 1], "groups": 1, "activation": "linear", "use_bias": false, "kernel_initializer": {"module": "keras.initializers", "class_name": "GlorotUniform", "config": {"seed": null}, "registered_name": null}, "bias_initializer": {"module": "keras.initializers", "class_name": "Zeros", "config": {}, "registered_name": null}, "kernel_regularizer": null, "bias_regularizer": null, "activity_regularizer": null, "kernel_constraint": null, "bias_constraint": null}, "registered_name": null, "build_config": {"input_shape": [null, 14, 14, 112]}, "name": "expanded_conv_11/expand", "inbound_nodes": [[["expanded_conv_10/project/BatchNorm", 0, 0, {}]]]}, {"module": "keras.layers", "class_name": "BatchNormalization", "config": {"name": "expanded_conv_11/expand/BatchNorm", "trainable": false, "dtype": "float32", "axis": [3], "momentum": 0.999, "epsilon": 0.001, "center": true, "scale": true, "beta_initializer": {"module": "keras.initializers", "class_name": "Zeros", "config": {}, "registered_name": null}, "gamma_initializer": {"module": "keras.initializers", "class_name": "Ones", "config": {}, "registered_name": null}, "moving_mean_initializer": {"module": "keras.initializers", "class_name": "Zeros", "config": {}, "registered_name": null}, "moving_variance_initializer": {"module": "keras.initializers", "class_name": "Ones", "config": {}, "registered_name": null}, "beta_regularizer": null, "gamma_regularizer": null, "beta_constraint": null, "gamma_constraint": null}, "registered_name": null, "build_config": {"input_shape": [null, 14, 14, 672]}, "name": "expanded_conv_11/expand/BatchNorm", "inbound_nodes": [[["expanded_conv_11/expand", 0, 0, {}]]]}, {"module": "keras.src.layers.core.tf_op_layer", "class_name": "TFOpLambda", "config": {"name": "tf.__operators__.add_71", "trainable": false, "dtype": "float32", "function": "__operators__.add"}, "registered_name": "TFOpLambda", "build_config": {"input_shape": [null, 14, 14, 672]}, "name": "tf.__operators__.add_71", "inbound_nodes": [["expanded_conv_11/expand/BatchNorm", 0, 0, {"y": 3.0, "name": null}]]}, {"module": "keras.layers", "class_name": "ReLU", "config": {"name": "re_lu_104", "trainable": false, "dtype": "float32", "max_value": 6.0, "negative_slope": 0.0, "threshold": 0.0}, "registered_name": null, "build_config": {"input_shape": [null, 14, 14, 672]}, "name": "re_lu_104", "inbound_nodes": [[["tf.__operators__.add_71", 0, 0, {}]]]}, {"module": "keras.src.layers.core.tf_op_layer", "class_name": "TFOpLambda", "config": {"name": "tf.math.multiply_71", "trainable": false, "dtype": "float32", "function": "math.multiply"}, "registered_name": "TFOpLambda", "build_config": {"input_shape": [null, 14, 14, 672]}, "name": "tf.math.multiply_71", "inbound_nodes": [["re_lu_104", 0, 0, {"y": 0.16666666666666666, "name": null}]]}, {"module": "keras.layers", "class_name": "Multiply", "config": {"name": "multiply_51", "trainable": false, "dtype": "float32"}, "registered_name": null, "build_config": {"input_shape": [[null, 14, 14, 672], [null, 14, 14, 672]]}, "name": "multiply_51", "inbound_nodes": [[["expanded_conv_11/expand/BatchNorm", 0, 0, {}], ["tf.math.multiply_71", 0, 0, {}]]]}, {"module": "keras.layers", "class_name": "DepthwiseConv2D", "config": {"name": "expanded_conv_11/depthwise", "trainable": false, "dtype": "float32", "kernel_size": [3, 3], "strides": [1, 1], "padding": "same", "data_format": "channels_last", "dilation_rate": [1, 1], "groups": 1, "activation": "linear", "use_bias": false, "bias_initializer": {"module": "keras.initializers", "class_name": "Zeros", "config": {}, "registered_name": null}, "bias_regularizer": null, "activity_regularizer": null, "bias_constraint": null, "depth_multiplier": 1, "depthwise_initializer": {"module": "keras.initializers", "class_name": "GlorotUniform", "config": {"seed": null}, "registered_name": null}, "depthwise_regularizer": null, "depthwise_constraint": null}, "registered_name": null, "build_config": {"input_shape": [null, 14, 14, 672]}, "name": "expanded_conv_11/depthwise", "inbound_nodes": [[["multiply_51", 0, 0, {}]]]}, {"module": "keras.layers", "class_name": "BatchNormalization", "config": {"name": "expanded_conv_11/depthwise/BatchNorm", "trainable": false, "dtype": "float32", "axis": [3], "momentum": 0.999, "epsilon": 0.001, "center": true, "scale": true, "beta_initializer": {"module": "keras.initializers", "class_name": "Zeros", "config": {}, "registered_name": null}, "gamma_initializer": {"module": "keras.initializers", "class_name": "Ones", "config": {}, "registered_name": null}, "moving_mean_initializer": {"module": "keras.initializers", "class_name": "Zeros", "config": {}, "registered_name": null}, "moving_variance_initializer": {"module": "keras.initializers", "class_name": "Ones", "config": {}, "registered_name": null}, "beta_regularizer": null, "gamma_regularizer": null, "beta_constraint": null, "gamma_constraint": null}, "registered_name": null, "build_config": {"input_shape": [null, 14, 14, 672]}, "name": "expanded_conv_11/depthwise/BatchNorm", "inbound_nodes": [[["expanded_conv_11/depthwise", 0, 0, {}]]]}, {"module": "keras.src.layers.core.tf_op_layer", "class_name": "TFOpLambda", "config": {"name": "tf.__operators__.add_72", "trainable": false, "dtype": "float32", "function": "__operators__.add"}, "registered_name": "TFOpLambda", "build_config": {"input_shape": [null, 14, 14, 672]}, "name": "tf.__operators__.add_72", "inbound_nodes": [["expanded_conv_11/depthwise/BatchNorm", 0, 0, {"y": 3.0, "name": null}]]}, {"module": "keras.layers", "class_name": "ReLU", "config": {"name": "re_lu_105", "trainable": false, "dtype": "float32", "max_value": 6.0, "negative_slope": 0.0, "threshold": 0.0}, "registered_name": null, "build_config": {"input_shape": [null, 14, 14, 672]}, "name": "re_lu_105", "inbound_nodes": [[["tf.__operators__.add_72", 0, 0, {}]]]}, {"module": "keras.src.layers.core.tf_op_layer", "class_name": "TFOpLambda", "config": {"name": "tf.math.multiply_72", "trainable": false, "dtype": "float32", "function": "math.multiply"}, "registered_name": "TFOpLambda", "build_config": {"input_shape": [null, 14, 14, 672]}, "name": "tf.math.multiply_72", "inbound_nodes": [["re_lu_105", 0, 0, {"y": 0.16666666666666666, "name": null}]]}, {"module": "keras.layers", "class_name": "Multiply", "config": {"name": "multiply_52", "trainable": false, "dtype": "float32"}, "registered_name": null, "build_config": {"input_shape": [[null, 14, 14, 672], [null, 14, 14, 672]]}, "name": "multiply_52", "inbound_nodes": [[["expanded_conv_11/depthwise/BatchNorm", 0, 0, {}], ["tf.math.multiply_72", 0, 0, {}]]]}, {"module": "keras.layers", "class_name": "GlobalAveragePooling2D", "config": {"name": "expanded_conv_11/squeeze_excite/AvgPool", "trainable": false, "dtype": "float32", "data_format": "channels_last", "keepdims": true}, "registered_name": null, "build_config": {"input_shape": [null, 14, 14, 672]}, "name": "expanded_conv_11/squeeze_excite/AvgPool", "inbound_nodes": [[["multiply_52", 0, 0, {}]]]}, {"module": "keras.layers", "class_name": "Conv2D", "config": {"name": "expanded_conv_11/squeeze_excite/Conv", "trainable": false, "dtype": "float32", "filters": 168, "kernel_size": [1, 1], "strides": [1, 1], "padding": "same", "data_format": "channels_last", "dilation_rate": [1, 1], "groups": 1, "activation": "linear", "use_bias": true, "kernel_initializer": {"module": "keras.initializers", "class_name": "GlorotUniform", "config": {"seed": null}, "registered_name": null}, "bias_initializer": {"module": "keras.initializers", "class_name": "Zeros", "config": {}, "registered_name": null}, "kernel_regularizer": null, "bias_regularizer": null, "activity_regularizer": null, "kernel_constraint": null, "bias_constraint": null}, "registered_name": null, "build_config": {"input_shape": [null, 1, 1, 672]}, "name": "expanded_conv_11/squeeze_excite/Conv", "inbound_nodes": [[["expanded_conv_11/squeeze_excite/AvgPool", 0, 0, {}]]]}, {"module": "keras.layers", "class_name": "ReLU", "config": {"name": "expanded_conv_11/squeeze_excite/Relu", "trainable": false, "dtype": "float32", "max_value": null, "negative_slope": 0.0, "threshold": 0.0}, "registered_name": null, "build_config": {"input_shape": [null, 1, 1, 168]}, "name": "expanded_conv_11/squeeze_excite/Relu", "inbound_nodes": [[["expanded_conv_11/squeeze_excite/Conv", 0, 0, {}]]]}, {"module": "keras.layers", "class_name": "Conv2D", "config": {"name": "expanded_conv_11/squeeze_excite/Conv_1", "trainable": false, "dtype": "float32", "filters": 672, "kernel_size": [1, 1], "strides": [1, 1], "padding": "same", "data_format": "channels_last", "dilation_rate": [1, 1], "groups": 1, "activation": "linear", "use_bias": true, "kernel_initializer": {"module": "keras.initializers", "class_name": "GlorotUniform", "config": {"seed": null}, "registered_name": null}, "bias_initializer": {"module": "keras.initializers", "class_name": "Zeros", "config": {}, "registered_name": null}, "kernel_regularizer": null, "bias_regularizer": null, "activity_regularizer": null, "kernel_constraint": null, "bias_constraint": null}, "registered_name": null, "build_config": {"input_shape": [null, 1, 1, 168]}, "name": "expanded_conv_11/squeeze_excite/Conv_1", "inbound_nodes": [[["expanded_conv_11/squeeze_excite/Relu", 0, 0, {}]]]}, {"module": "keras.src.layers.core.tf_op_layer", "class_name": "TFOpLambda", "config": {"name": "tf.__operators__.add_73", "trainable": false, "dtype": "float32", "function": "__operators__.add"}, "registered_name": "TFOpLambda", "build_config": {"input_shape": [null, 1, 1, 672]}, "name": "tf.__operators__.add_73", "inbound_nodes": [["expanded_conv_11/squeeze_excite/Conv_1", 0, 0, {"y": 3.0, "name": null}]]}, {"module": "keras.layers", "class_name": "ReLU", "config": {"name": "re_lu_106", "trainable": false, "dtype": "float32", "max_value": 6.0, "negative_slope": 0.0, "threshold": 0.0}, "registered_name": null, "build_config": {"input_shape": [null, 1, 1, 672]}, "name": "re_lu_106", "inbound_nodes": [[["tf.__operators__.add_73", 0, 0, {}]]]}, {"module": "keras.src.layers.core.tf_op_layer", "class_name": "TFOpLambda", "config": {"name": "tf.math.multiply_73", "trainable": false, "dtype": "float32", "function": "math.multiply"}, "registered_name": "TFOpLambda", "build_config": {"input_shape": [null, 1, 1, 672]}, "name": "tf.math.multiply_73", "inbound_nodes": [["re_lu_106", 0, 0, {"y": 0.16666666666666666, "name": null}]]}, {"module": "keras.layers", "class_name": "Multiply", "config": {"name": "expanded_conv_11/squeeze_excite/Mul", "trainable": false, "dtype": "float32"}, "registered_name": null, "build_config": {"input_shape": [[null, 14, 14, 672], [null, 1, 1, 672]]}, "name": "expanded_conv_11/squeeze_excite/Mul", "inbound_nodes": [[["multiply_52", 0, 0, {}], ["tf.math.multiply_73", 0, 0, {}]]]}, {"module": "keras.layers", "class_name": "Conv2D", "config": {"name": "expanded_conv_11/project", "trainable": false, "dtype": "float32", "filters": 112, "kernel_size": [1, 1], "strides": [1, 1], "padding": "same", "data_format": "channels_last", "dilation_rate": [1, 1], "groups": 1, "activation": "linear", "use_bias": false, "kernel_initializer": {"module": "keras.initializers", "class_name": "GlorotUniform", "config": {"seed": null}, "registered_name": null}, "bias_initializer": {"module": "keras.initializers", "class_name": "Zeros", "config": {}, "registered_name": null}, "kernel_regularizer": null, "bias_regularizer": null, "activity_regularizer": null, "kernel_constraint": null, "bias_constraint": null}, "registered_name": null, "build_config": {"input_shape": [null, 14, 14, 672]}, "name": "expanded_conv_11/project", "inbound_nodes": [[["expanded_conv_11/squeeze_excite/Mul", 0, 0, {}]]]}, {"module": "keras.layers", "class_name": "BatchNormalization", "config": {"name": "expanded_conv_11/project/BatchNorm", "trainable": false, "dtype": "float32", "axis": [3], "momentum": 0.999, "epsilon": 0.001, "center": true, "scale": true, "beta_initializer": {"module": "keras.initializers", "class_name": "Zeros", "config": {}, "registered_name": null}, "gamma_initializer": {"module": "keras.initializers", "class_name": "Ones", "config": {}, "registered_name": null}, "moving_mean_initializer": {"module": "keras.initializers", "class_name": "Zeros", "config": {}, "registered_name": null}, "moving_variance_initializer": {"module": "keras.initializers", "class_name": "Ones", "config": {}, "registered_name": null}, "beta_regularizer": null, "gamma_regularizer": null, "beta_constraint": null, "gamma_constraint": null}, "registered_name": null, "build_config": {"input_shape": [null, 14, 14, 112]}, "name": "expanded_conv_11/project/BatchNorm", "inbound_nodes": [[["expanded_conv_11/project", 0, 0, {}]]]}, {"module": "keras.layers", "class_name": "Add", "config": {"name": "expanded_conv_11/Add", "trainable": false, "dtype": "float32"}, "registered_name": null, "build_config": {"input_shape": [[null, 14, 14, 112], [null, 14, 14, 112]]}, "name": "expanded_conv_11/Add", "inbound_nodes": [[["expanded_conv_10/project/BatchNorm", 0, 0, {}], ["expanded_conv_11/project/BatchNorm", 0, 0, {}]]]}, {"module": "keras.layers", "class_name": "Conv2D", "config": {"name": "expanded_conv_12/expand", "trainable": false, "dtype": "float32", "filters": 672, "kernel_size": [1, 1], "strides": [1, 1], "padding": "same", "data_format": "channels_last", "dilation_rate": [1, 1], "groups": 1, "activation": "linear", "use_bias": false, "kernel_initializer": {"module": "keras.initializers", "class_name": "GlorotUniform", "config": {"seed": null}, "registered_name": null}, "bias_initializer": {"module": "keras.initializers", "class_name": "Zeros", "config": {}, "registered_name": null}, "kernel_regularizer": null, "bias_regularizer": null, "activity_regularizer": null, "kernel_constraint": null, "bias_constraint": null}, "registered_name": null, "build_config": {"input_shape": [null, 14, 14, 112]}, "name": "expanded_conv_12/expand", "inbound_nodes": [[["expanded_conv_11/Add", 0, 0, {}]]]}, {"module": "keras.layers", "class_name": "BatchNormalization", "config": {"name": "expanded_conv_12/expand/BatchNorm", "trainable": false, "dtype": "float32", "axis": [3], "momentum": 0.999, "epsilon": 0.001, "center": true, "scale": true, "beta_initializer": {"module": "keras.initializers", "class_name": "Zeros", "config": {}, "registered_name": null}, "gamma_initializer": {"module": "keras.initializers", "class_name": "Ones", "config": {}, "registered_name": null}, "moving_mean_initializer": {"module": "keras.initializers", "class_name": "Zeros", "config": {}, "registered_name": null}, "moving_variance_initializer": {"module": "keras.initializers", "class_name": "Ones", "config": {}, "registered_name": null}, "beta_regularizer": null, "gamma_regularizer": null, "beta_constraint": null, "gamma_constraint": null}, "registered_name": null, "build_config": {"input_shape": [null, 14, 14, 672]}, "name": "expanded_conv_12/expand/BatchNorm", "inbound_nodes": [[["expanded_conv_12/expand", 0, 0, {}]]]}, {"module": "keras.src.layers.core.tf_op_layer", "class_name": "TFOpLambda", "config": {"name": "tf.__operators__.add_74", "trainable": false, "dtype": "float32", "function": "__operators__.add"}, "registered_name": "TFOpLambda", "build_config": {"input_shape": [null, 14, 14, 672]}, "name": "tf.__operators__.add_74", "inbound_nodes": [["expanded_conv_12/expand/BatchNorm", 0, 0, {"y": 3.0, "name": null}]]}, {"module": "keras.layers", "class_name": "ReLU", "config": {"name": "re_lu_107", "trainable": false, "dtype": "float32", "max_value": 6.0, "negative_slope": 0.0, "threshold": 0.0}, "registered_name": null, "build_config": {"input_shape": [null, 14, 14, 672]}, "name": "re_lu_107", "inbound_nodes": [[["tf.__operators__.add_74", 0, 0, {}]]]}, {"module": "keras.src.layers.core.tf_op_layer", "class_name": "TFOpLambda", "config": {"name": "tf.math.multiply_74", "trainable": false, "dtype": "float32", "function": "math.multiply"}, "registered_name": "TFOpLambda", "build_config": {"input_shape": [null, 14, 14, 672]}, "name": "tf.math.multiply_74", "inbound_nodes": [["re_lu_107", 0, 0, {"y": 0.16666666666666666, "name": null}]]}, {"module": "keras.layers", "class_name": "Multiply", "config": {"name": "multiply_53", "trainable": false, "dtype": "float32"}, "registered_name": null, "build_config": {"input_shape": [[null, 14, 14, 672], [null, 14, 14, 672]]}, "name": "multiply_53", "inbound_nodes": [[["expanded_conv_12/expand/BatchNorm", 0, 0, {}], ["tf.math.multiply_74", 0, 0, {}]]]}, {"module": "keras.layers", "class_name": "ZeroPadding2D", "config": {"name": "expanded_conv_12/depthwise/pad", "trainable": false, "dtype": "float32", "padding": [[1, 2], [1, 2]], "data_format": "channels_last"}, "registered_name": null, "build_config": {"input_shape": [null, 14, 14, 672]}, "name": "expanded_conv_12/depthwise/pad", "inbound_nodes": [[["multiply_53", 0, 0, {}]]]}, {"module": "keras.layers", "class_name": "DepthwiseConv2D", "config": {"name": "expanded_conv_12/depthwise", "trainable": false, "dtype": "float32", "kernel_size": [5, 5], "strides": [2, 2], "padding": "valid", "data_format": "channels_last", "dilation_rate": [1, 1], "groups": 1, "activation": "linear", "use_bias": false, "bias_initializer": {"module": "keras.initializers", "class_name": "Zeros", "config": {}, "registered_name": null}, "bias_regularizer": null, "activity_regularizer": null, "bias_constraint": null, "depth_multiplier": 1, "depthwise_initializer": {"module": "keras.initializers", "class_name": "GlorotUniform", "config": {"seed": null}, "registered_name": null}, "depthwise_regularizer": null, "depthwise_constraint": null}, "registered_name": null, "build_config": {"input_shape": [null, 17, 17, 672]}, "name": "expanded_conv_12/depthwise", "inbound_nodes": [[["expanded_conv_12/depthwise/pad", 0, 0, {}]]]}, {"module": "keras.layers", "class_name": "BatchNormalization", "config": {"name": "expanded_conv_12/depthwise/BatchNorm", "trainable": false, "dtype": "float32", "axis": [3], "momentum": 0.999, "epsilon": 0.001, "center": true, "scale": true, "beta_initializer": {"module": "keras.initializers", "class_name": "Zeros", "config": {}, "registered_name": null}, "gamma_initializer": {"module": "keras.initializers", "class_name": "Ones", "config": {}, "registered_name": null}, "moving_mean_initializer": {"module": "keras.initializers", "class_name": "Zeros", "config": {}, "registered_name": null}, "moving_variance_initializer": {"module": "keras.initializers", "class_name": "Ones", "config": {}, "registered_name": null}, "beta_regularizer": null, "gamma_regularizer": null, "beta_constraint": null, "gamma_constraint": null}, "registered_name": null, "build_config": {"input_shape": [null, 7, 7, 672]}, "name": "expanded_conv_12/depthwise/BatchNorm", "inbound_nodes": [[["expanded_conv_12/depthwise", 0, 0, {}]]]}, {"module": "keras.src.layers.core.tf_op_layer", "class_name": "TFOpLambda", "config": {"name": "tf.__operators__.add_75", "trainable": false, "dtype": "float32", "function": "__operators__.add"}, "registered_name": "TFOpLambda", "build_config": {"input_shape": [null, 7, 7, 672]}, "name": "tf.__operators__.add_75", "inbound_nodes": [["expanded_conv_12/depthwise/BatchNorm", 0, 0, {"y": 3.0, "name": null}]]}, {"module": "keras.layers", "class_name": "ReLU", "config": {"name": "re_lu_108", "trainable": false, "dtype": "float32", "max_value": 6.0, "negative_slope": 0.0, "threshold": 0.0}, "registered_name": null, "build_config": {"input_shape": [null, 7, 7, 672]}, "name": "re_lu_108", "inbound_nodes": [[["tf.__operators__.add_75", 0, 0, {}]]]}, {"module": "keras.src.layers.core.tf_op_layer", "class_name": "TFOpLambda", "config": {"name": "tf.math.multiply_75", "trainable": false, "dtype": "float32", "function": "math.multiply"}, "registered_name": "TFOpLambda", "build_config": {"input_shape": [null, 7, 7, 672]}, "name": "tf.math.multiply_75", "inbound_nodes": [["re_lu_108", 0, 0, {"y": 0.16666666666666666, "name": null}]]}, {"module": "keras.layers", "class_name": "Multiply", "config": {"name": "multiply_54", "trainable": false, "dtype": "float32"}, "registered_name": null, "build_config": {"input_shape": [[null, 7, 7, 672], [null, 7, 7, 672]]}, "name": "multiply_54", "inbound_nodes": [[["expanded_conv_12/depthwise/BatchNorm", 0, 0, {}], ["tf.math.multiply_75", 0, 0, {}]]]}, {"module": "keras.layers", "class_name": "GlobalAveragePooling2D", "config": {"name": "expanded_conv_12/squeeze_excite/AvgPool", "trainable": false, "dtype": "float32", "data_format": "channels_last", "keepdims": true}, "registered_name": null, "build_config": {"input_shape": [null, 7, 7, 672]}, "name": "expanded_conv_12/squeeze_excite/AvgPool", "inbound_nodes": [[["multiply_54", 0, 0, {}]]]}, {"module": "keras.layers", "class_name": "Conv2D", "config": {"name": "expanded_conv_12/squeeze_excite/Conv", "trainable": false, "dtype": "float32", "filters": 168, "kernel_size": [1, 1], "strides": [1, 1], "padding": "same", "data_format": "channels_last", "dilation_rate": [1, 1], "groups": 1, "activation": "linear", "use_bias": true, "kernel_initializer": {"module": "keras.initializers", "class_name": "GlorotUniform", "config": {"seed": null}, "registered_name": null}, "bias_initializer": {"module": "keras.initializers", "class_name": "Zeros", "config": {}, "registered_name": null}, "kernel_regularizer": null, "bias_regularizer": null, "activity_regularizer": null, "kernel_constraint": null, "bias_constraint": null}, "registered_name": null, "build_config": {"input_shape": [null, 1, 1, 672]}, "name": "expanded_conv_12/squeeze_excite/Conv", "inbound_nodes": [[["expanded_conv_12/squeeze_excite/AvgPool", 0, 0, {}]]]}, {"module": "keras.layers", "class_name": "ReLU", "config": {"name": "expanded_conv_12/squeeze_excite/Relu", "trainable": false, "dtype": "float32", "max_value": null, "negative_slope": 0.0, "threshold": 0.0}, "registered_name": null, "build_config": {"input_shape": [null, 1, 1, 168]}, "name": "expanded_conv_12/squeeze_excite/Relu", "inbound_nodes": [[["expanded_conv_12/squeeze_excite/Conv", 0, 0, {}]]]}, {"module": "keras.layers", "class_name": "Conv2D", "config": {"name": "expanded_conv_12/squeeze_excite/Conv_1", "trainable": false, "dtype": "float32", "filters": 672, "kernel_size": [1, 1], "strides": [1, 1], "padding": "same", "data_format": "channels_last", "dilation_rate": [1, 1], "groups": 1, "activation": "linear", "use_bias": true, "kernel_initializer": {"module": "keras.initializers", "class_name": "GlorotUniform", "config": {"seed": null}, "registered_name": null}, "bias_initializer": {"module": "keras.initializers", "class_name": "Zeros", "config": {}, "registered_name": null}, "kernel_regularizer": null, "bias_regularizer": null, "activity_regularizer": null, "kernel_constraint": null, "bias_constraint": null}, "registered_name": null, "build_config": {"input_shape": [null, 1, 1, 168]}, "name": "expanded_conv_12/squeeze_excite/Conv_1", "inbound_nodes": [[["expanded_conv_12/squeeze_excite/Relu", 0, 0, {}]]]}, {"module": "keras.src.layers.core.tf_op_layer", "class_name": "TFOpLambda", "config": {"name": "tf.__operators__.add_76", "trainable": false, "dtype": "float32", "function": "__operators__.add"}, "registered_name": "TFOpLambda", "build_config": {"input_shape": [null, 1, 1, 672]}, "name": "tf.__operators__.add_76", "inbound_nodes": [["expanded_conv_12/squeeze_excite/Conv_1", 0, 0, {"y": 3.0, "name": null}]]}, {"module": "keras.layers", "class_name": "ReLU", "config": {"name": "re_lu_109", "trainable": false, "dtype": "float32", "max_value": 6.0, "negative_slope": 0.0, "threshold": 0.0}, "registered_name": null, "build_config": {"input_shape": [null, 1, 1, 672]}, "name": "re_lu_109", "inbound_nodes": [[["tf.__operators__.add_76", 0, 0, {}]]]}, {"module": "keras.src.layers.core.tf_op_layer", "class_name": "TFOpLambda", "config": {"name": "tf.math.multiply_76", "trainable": false, "dtype": "float32", "function": "math.multiply"}, "registered_name": "TFOpLambda", "build_config": {"input_shape": [null, 1, 1, 672]}, "name": "tf.math.multiply_76", "inbound_nodes": [["re_lu_109", 0, 0, {"y": 0.16666666666666666, "name": null}]]}, {"module": "keras.layers", "class_name": "Multiply", "config": {"name": "expanded_conv_12/squeeze_excite/Mul", "trainable": false, "dtype": "float32"}, "registered_name": null, "build_config": {"input_shape": [[null, 7, 7, 672], [null, 1, 1, 672]]}, "name": "expanded_conv_12/squeeze_excite/Mul", "inbound_nodes": [[["multiply_54", 0, 0, {}], ["tf.math.multiply_76", 0, 0, {}]]]}, {"module": "keras.layers", "class_name": "Conv2D", "config": {"name": "expanded_conv_12/project", "trainable": false, "dtype": "float32", "filters": 160, "kernel_size": [1, 1], "strides": [1, 1], "padding": "same", "data_format": "channels_last", "dilation_rate": [1, 1], "groups": 1, "activation": "linear", "use_bias": false, "kernel_initializer": {"module": "keras.initializers", "class_name": "GlorotUniform", "config": {"seed": null}, "registered_name": null}, "bias_initializer": {"module": "keras.initializers", "class_name": "Zeros", "config": {}, "registered_name": null}, "kernel_regularizer": null, "bias_regularizer": null, "activity_regularizer": null, "kernel_constraint": null, "bias_constraint": null}, "registered_name": null, "build_config": {"input_shape": [null, 7, 7, 672]}, "name": "expanded_conv_12/project", "inbound_nodes": [[["expanded_conv_12/squeeze_excite/Mul", 0, 0, {}]]]}, {"module": "keras.layers", "class_name": "BatchNormalization", "config": {"name": "expanded_conv_12/project/BatchNorm", "trainable": false, "dtype": "float32", "axis": [3], "momentum": 0.999, "epsilon": 0.001, "center": true, "scale": true, "beta_initializer": {"module": "keras.initializers", "class_name": "Zeros", "config": {}, "registered_name": null}, "gamma_initializer": {"module": "keras.initializers", "class_name": "Ones", "config": {}, "registered_name": null}, "moving_mean_initializer": {"module": "keras.initializers", "class_name": "Zeros", "config": {}, "registered_name": null}, "moving_variance_initializer": {"module": "keras.initializers", "class_name": "Ones", "config": {}, "registered_name": null}, "beta_regularizer": null, "gamma_regularizer": null, "beta_constraint": null, "gamma_constraint": null}, "registered_name": null, "build_config": {"input_shape": [null, 7, 7, 160]}, "name": "expanded_conv_12/project/BatchNorm", "inbound_nodes": [[["expanded_conv_12/project", 0, 0, {}]]]}, {"module": "keras.layers", "class_name": "Conv2D", "config": {"name": "expanded_conv_13/expand", "trainable": false, "dtype": "float32", "filters": 960, "kernel_size": [1, 1], "strides": [1, 1], "padding": "same", "data_format": "channels_last", "dilation_rate": [1, 1], "groups": 1, "activation": "linear", "use_bias": false, "kernel_initializer": {"module": "keras.initializers", "class_name": "GlorotUniform", "config": {"seed": null}, "registered_name": null}, "bias_initializer": {"module": "keras.initializers", "class_name": "Zeros", "config": {}, "registered_name": null}, "kernel_regularizer": null, "bias_regularizer": null, "activity_regularizer": null, "kernel_constraint": null, "bias_constraint": null}, "registered_name": null, "build_config": {"input_shape": [null, 7, 7, 160]}, "name": "expanded_conv_13/expand", "inbound_nodes": [[["expanded_conv_12/project/BatchNorm", 0, 0, {}]]]}, {"module": "keras.layers", "class_name": "BatchNormalization", "config": {"name": "expanded_conv_13/expand/BatchNorm", "trainable": false, "dtype": "float32", "axis": [3], "momentum": 0.999, "epsilon": 0.001, "center": true, "scale": true, "beta_initializer": {"module": "keras.initializers", "class_name": "Zeros", "config": {}, "registered_name": null}, "gamma_initializer": {"module": "keras.initializers", "class_name": "Ones", "config": {}, "registered_name": null}, "moving_mean_initializer": {"module": "keras.initializers", "class_name": "Zeros", "config": {}, "registered_name": null}, "moving_variance_initializer": {"module": "keras.initializers", "class_name": "Ones", "config": {}, "registered_name": null}, "beta_regularizer": null, "gamma_regularizer": null, "beta_constraint": null, "gamma_constraint": null}, "registered_name": null, "build_config": {"input_shape": [null, 7, 7, 960]}, "name": "expanded_conv_13/expand/BatchNorm", "inbound_nodes": [[["expanded_conv_13/expand", 0, 0, {}]]]}, {"module": "keras.src.layers.core.tf_op_layer", "class_name": "TFOpLambda", "config": {"name": "tf.__operators__.add_77", "trainable": false, "dtype": "float32", "function": "__operators__.add"}, "registered_name": "TFOpLambda", "build_config": {"input_shape": [null, 7, 7, 960]}, "name": "tf.__operators__.add_77", "inbound_nodes": [["expanded_conv_13/expand/BatchNorm", 0, 0, {"y": 3.0, "name": null}]]}, {"module": "keras.layers", "class_name": "ReLU", "config": {"name": "re_lu_110", "trainable": false, "dtype": "float32", "max_value": 6.0, "negative_slope": 0.0, "threshold": 0.0}, "registered_name": null, "build_config": {"input_shape": [null, 7, 7, 960]}, "name": "re_lu_110", "inbound_nodes": [[["tf.__operators__.add_77", 0, 0, {}]]]}, {"module": "keras.src.layers.core.tf_op_layer", "class_name": "TFOpLambda", "config": {"name": "tf.math.multiply_77", "trainable": false, "dtype": "float32", "function": "math.multiply"}, "registered_name": "TFOpLambda", "build_config": {"input_shape": [null, 7, 7, 960]}, "name": "tf.math.multiply_77", "inbound_nodes": [["re_lu_110", 0, 0, {"y": 0.16666666666666666, "name": null}]]}, {"module": "keras.layers", "class_name": "Multiply", "config": {"name": "multiply_55", "trainable": false, "dtype": "float32"}, "registered_name": null, "build_config": {"input_shape": [[null, 7, 7, 960], [null, 7, 7, 960]]}, "name": "multiply_55", "inbound_nodes": [[["expanded_conv_13/expand/BatchNorm", 0, 0, {}], ["tf.math.multiply_77", 0, 0, {}]]]}, {"module": "keras.layers", "class_name": "DepthwiseConv2D", "config": {"name": "expanded_conv_13/depthwise", "trainable": false, "dtype": "float32", "kernel_size": [5, 5], "strides": [1, 1], "padding": "same", "data_format": "channels_last", "dilation_rate": [1, 1], "groups": 1, "activation": "linear", "use_bias": false, "bias_initializer": {"module": "keras.initializers", "class_name": "Zeros", "config": {}, "registered_name": null}, "bias_regularizer": null, "activity_regularizer": null, "bias_constraint": null, "depth_multiplier": 1, "depthwise_initializer": {"module": "keras.initializers", "class_name": "GlorotUniform", "config": {"seed": null}, "registered_name": null}, "depthwise_regularizer": null, "depthwise_constraint": null}, "registered_name": null, "build_config": {"input_shape": [null, 7, 7, 960]}, "name": "expanded_conv_13/depthwise", "inbound_nodes": [[["multiply_55", 0, 0, {}]]]}, {"module": "keras.layers", "class_name": "BatchNormalization", "config": {"name": "expanded_conv_13/depthwise/BatchNorm", "trainable": false, "dtype": "float32", "axis": [3], "momentum": 0.999, "epsilon": 0.001, "center": true, "scale": true, "beta_initializer": {"module": "keras.initializers", "class_name": "Zeros", "config": {}, "registered_name": null}, "gamma_initializer": {"module": "keras.initializers", "class_name": "Ones", "config": {}, "registered_name": null}, "moving_mean_initializer": {"module": "keras.initializers", "class_name": "Zeros", "config": {}, "registered_name": null}, "moving_variance_initializer": {"module": "keras.initializers", "class_name": "Ones", "config": {}, "registered_name": null}, "beta_regularizer": null, "gamma_regularizer": null, "beta_constraint": null, "gamma_constraint": null}, "registered_name": null, "build_config": {"input_shape": [null, 7, 7, 960]}, "name": "expanded_conv_13/depthwise/BatchNorm", "inbound_nodes": [[["expanded_conv_13/depthwise", 0, 0, {}]]]}, {"module": "keras.src.layers.core.tf_op_layer", "class_name": "TFOpLambda", "config": {"name": "tf.__operators__.add_78", "trainable": false, "dtype": "float32", "function": "__operators__.add"}, "registered_name": "TFOpLambda", "build_config": {"input_shape": [null, 7, 7, 960]}, "name": "tf.__operators__.add_78", "inbound_nodes": [["expanded_conv_13/depthwise/BatchNorm", 0, 0, {"y": 3.0, "name": null}]]}, {"module": "keras.layers", "class_name": "ReLU", "config": {"name": "re_lu_111", "trainable": false, "dtype": "float32", "max_value": 6.0, "negative_slope": 0.0, "threshold": 0.0}, "registered_name": null, "build_config": {"input_shape": [null, 7, 7, 960]}, "name": "re_lu_111", "inbound_nodes": [[["tf.__operators__.add_78", 0, 0, {}]]]}, {"module": "keras.src.layers.core.tf_op_layer", "class_name": "TFOpLambda", "config": {"name": "tf.math.multiply_78", "trainable": false, "dtype": "float32", "function": "math.multiply"}, "registered_name": "TFOpLambda", "build_config": {"input_shape": [null, 7, 7, 960]}, "name": "tf.math.multiply_78", "inbound_nodes": [["re_lu_111", 0, 0, {"y": 0.16666666666666666, "name": null}]]}, {"module": "keras.layers", "class_name": "Multiply", "config": {"name": "multiply_56", "trainable": false, "dtype": "float32"}, "registered_name": null, "build_config": {"input_shape": [[null, 7, 7, 960], [null, 7, 7, 960]]}, "name": "multiply_56", "inbound_nodes": [[["expanded_conv_13/depthwise/BatchNorm", 0, 0, {}], ["tf.math.multiply_78", 0, 0, {}]]]}, {"module": "keras.layers", "class_name": "GlobalAveragePooling2D", "config": {"name": "expanded_conv_13/squeeze_excite/AvgPool", "trainable": false, "dtype": "float32", "data_format": "channels_last", "keepdims": true}, "registered_name": null, "build_config": {"input_shape": [null, 7, 7, 960]}, "name": "expanded_conv_13/squeeze_excite/AvgPool", "inbound_nodes": [[["multiply_56", 0, 0, {}]]]}, {"module": "keras.layers", "class_name": "Conv2D", "config": {"name": "expanded_conv_13/squeeze_excite/Conv", "trainable": false, "dtype": "float32", "filters": 240, "kernel_size": [1, 1], "strides": [1, 1], "padding": "same", "data_format": "channels_last", "dilation_rate": [1, 1], "groups": 1, "activation": "linear", "use_bias": true, "kernel_initializer": {"module": "keras.initializers", "class_name": "GlorotUniform", "config": {"seed": null}, "registered_name": null}, "bias_initializer": {"module": "keras.initializers", "class_name": "Zeros", "config": {}, "registered_name": null}, "kernel_regularizer": null, "bias_regularizer": null, "activity_regularizer": null, "kernel_constraint": null, "bias_constraint": null}, "registered_name": null, "build_config": {"input_shape": [null, 1, 1, 960]}, "name": "expanded_conv_13/squeeze_excite/Conv", "inbound_nodes": [[["expanded_conv_13/squeeze_excite/AvgPool", 0, 0, {}]]]}, {"module": "keras.layers", "class_name": "ReLU", "config": {"name": "expanded_conv_13/squeeze_excite/Relu", "trainable": false, "dtype": "float32", "max_value": null, "negative_slope": 0.0, "threshold": 0.0}, "registered_name": null, "build_config": {"input_shape": [null, 1, 1, 240]}, "name": "expanded_conv_13/squeeze_excite/Relu", "inbound_nodes": [[["expanded_conv_13/squeeze_excite/Conv", 0, 0, {}]]]}, {"module": "keras.layers", "class_name": "Conv2D", "config": {"name": "expanded_conv_13/squeeze_excite/Conv_1", "trainable": false, "dtype": "float32", "filters": 960, "kernel_size": [1, 1], "strides": [1, 1], "padding": "same", "data_format": "channels_last", "dilation_rate": [1, 1], "groups": 1, "activation": "linear", "use_bias": true, "kernel_initializer": {"module": "keras.initializers", "class_name": "GlorotUniform", "config": {"seed": null}, "registered_name": null}, "bias_initializer": {"module": "keras.initializers", "class_name": "Zeros", "config": {}, "registered_name": null}, "kernel_regularizer": null, "bias_regularizer": null, "activity_regularizer": null, "kernel_constraint": null, "bias_constraint": null}, "registered_name": null, "build_config": {"input_shape": [null, 1, 1, 240]}, "name": "expanded_conv_13/squeeze_excite/Conv_1", "inbound_nodes": [[["expanded_conv_13/squeeze_excite/Relu", 0, 0, {}]]]}, {"module": "keras.src.layers.core.tf_op_layer", "class_name": "TFOpLambda", "config": {"name": "tf.__operators__.add_79", "trainable": false, "dtype": "float32", "function": "__operators__.add"}, "registered_name": "TFOpLambda", "build_config": {"input_shape": [null, 1, 1, 960]}, "name": "tf.__operators__.add_79", "inbound_nodes": [["expanded_conv_13/squeeze_excite/Conv_1", 0, 0, {"y": 3.0, "name": null}]]}, {"module": "keras.layers", "class_name": "ReLU", "config": {"name": "re_lu_112", "trainable": false, "dtype": "float32", "max_value": 6.0, "negative_slope": 0.0, "threshold": 0.0}, "registered_name": null, "build_config": {"input_shape": [null, 1, 1, 960]}, "name": "re_lu_112", "inbound_nodes": [[["tf.__operators__.add_79", 0, 0, {}]]]}, {"module": "keras.src.layers.core.tf_op_layer", "class_name": "TFOpLambda", "config": {"name": "tf.math.multiply_79", "trainable": false, "dtype": "float32", "function": "math.multiply"}, "registered_name": "TFOpLambda", "build_config": {"input_shape": [null, 1, 1, 960]}, "name": "tf.math.multiply_79", "inbound_nodes": [["re_lu_112", 0, 0, {"y": 0.16666666666666666, "name": null}]]}, {"module": "keras.layers", "class_name": "Multiply", "config": {"name": "expanded_conv_13/squeeze_excite/Mul", "trainable": false, "dtype": "float32"}, "registered_name": null, "build_config": {"input_shape": [[null, 7, 7, 960], [null, 1, 1, 960]]}, "name": "expanded_conv_13/squeeze_excite/Mul", "inbound_nodes": [[["multiply_56", 0, 0, {}], ["tf.math.multiply_79", 0, 0, {}]]]}, {"module": "keras.layers", "class_name": "Conv2D", "config": {"name": "expanded_conv_13/project", "trainable": false, "dtype": "float32", "filters": 160, "kernel_size": [1, 1], "strides": [1, 1], "padding": "same", "data_format": "channels_last", "dilation_rate": [1, 1], "groups": 1, "activation": "linear", "use_bias": false, "kernel_initializer": {"module": "keras.initializers", "class_name": "GlorotUniform", "config": {"seed": null}, "registered_name": null}, "bias_initializer": {"module": "keras.initializers", "class_name": "Zeros", "config": {}, "registered_name": null}, "kernel_regularizer": null, "bias_regularizer": null, "activity_regularizer": null, "kernel_constraint": null, "bias_constraint": null}, "registered_name": null, "build_config": {"input_shape": [null, 7, 7, 960]}, "name": "expanded_conv_13/project", "inbound_nodes": [[["expanded_conv_13/squeeze_excite/Mul", 0, 0, {}]]]}, {"module": "keras.layers", "class_name": "BatchNormalization", "config": {"name": "expanded_conv_13/project/BatchNorm", "trainable": false, "dtype": "float32", "axis": [3], "momentum": 0.999, "epsilon": 0.001, "center": true, "scale": true, "beta_initializer": {"module": "keras.initializers", "class_name": "Zeros", "config": {}, "registered_name": null}, "gamma_initializer": {"module": "keras.initializers", "class_name": "Ones", "config": {}, "registered_name": null}, "moving_mean_initializer": {"module": "keras.initializers", "class_name": "Zeros", "config": {}, "registered_name": null}, "moving_variance_initializer": {"module": "keras.initializers", "class_name": "Ones", "config": {}, "registered_name": null}, "beta_regularizer": null, "gamma_regularizer": null, "beta_constraint": null, "gamma_constraint": null}, "registered_name": null, "build_config": {"input_shape": [null, 7, 7, 160]}, "name": "expanded_conv_13/project/BatchNorm", "inbound_nodes": [[["expanded_conv_13/project", 0, 0, {}]]]}, {"module": "keras.layers", "class_name": "Add", "config": {"name": "expanded_conv_13/Add", "trainable": false, "dtype": "float32"}, "registered_name": null, "build_config": {"input_shape": [[null, 7, 7, 160], [null, 7, 7, 160]]}, "name": "expanded_conv_13/Add", "inbound_nodes": [[["expanded_conv_12/project/BatchNorm", 0, 0, {}], ["expanded_conv_13/project/BatchNorm", 0, 0, {}]]]}, {"module": "keras.layers", "class_name": "Conv2D", "config": {"name": "expanded_conv_14/expand", "trainable": false, "dtype": "float32", "filters": 960, "kernel_size": [1, 1], "strides": [1, 1], "padding": "same", "data_format": "channels_last", "dilation_rate": [1, 1], "groups": 1, "activation": "linear", "use_bias": false, "kernel_initializer": {"module": "keras.initializers", "class_name": "GlorotUniform", "config": {"seed": null}, "registered_name": null}, "bias_initializer": {"module": "keras.initializers", "class_name": "Zeros", "config": {}, "registered_name": null}, "kernel_regularizer": null, "bias_regularizer": null, "activity_regularizer": null, "kernel_constraint": null, "bias_constraint": null}, "registered_name": null, "build_config": {"input_shape": [null, 7, 7, 160]}, "name": "expanded_conv_14/expand", "inbound_nodes": [[["expanded_conv_13/Add", 0, 0, {}]]]}, {"module": "keras.layers", "class_name": "BatchNormalization", "config": {"name": "expanded_conv_14/expand/BatchNorm", "trainable": false, "dtype": "float32", "axis": [3], "momentum": 0.999, "epsilon": 0.001, "center": true, "scale": true, "beta_initializer": {"module": "keras.initializers", "class_name": "Zeros", "config": {}, "registered_name": null}, "gamma_initializer": {"module": "keras.initializers", "class_name": "Ones", "config": {}, "registered_name": null}, "moving_mean_initializer": {"module": "keras.initializers", "class_name": "Zeros", "config": {}, "registered_name": null}, "moving_variance_initializer": {"module": "keras.initializers", "class_name": "Ones", "config": {}, "registered_name": null}, "beta_regularizer": null, "gamma_regularizer": null, "beta_constraint": null, "gamma_constraint": null}, "registered_name": null, "build_config": {"input_shape": [null, 7, 7, 960]}, "name": "expanded_conv_14/expand/BatchNorm", "inbound_nodes": [[["expanded_conv_14/expand", 0, 0, {}]]]}, {"module": "keras.src.layers.core.tf_op_layer", "class_name": "TFOpLambda", "config": {"name": "tf.__operators__.add_80", "trainable": false, "dtype": "float32", "function": "__operators__.add"}, "registered_name": "TFOpLambda", "build_config": {"input_shape": [null, 7, 7, 960]}, "name": "tf.__operators__.add_80", "inbound_nodes": [["expanded_conv_14/expand/BatchNorm", 0, 0, {"y": 3.0, "name": null}]]}, {"module": "keras.layers", "class_name": "ReLU", "config": {"name": "re_lu_113", "trainable": false, "dtype": "float32", "max_value": 6.0, "negative_slope": 0.0, "threshold": 0.0}, "registered_name": null, "build_config": {"input_shape": [null, 7, 7, 960]}, "name": "re_lu_113", "inbound_nodes": [[["tf.__operators__.add_80", 0, 0, {}]]]}, {"module": "keras.src.layers.core.tf_op_layer", "class_name": "TFOpLambda", "config": {"name": "tf.math.multiply_80", "trainable": false, "dtype": "float32", "function": "math.multiply"}, "registered_name": "TFOpLambda", "build_config": {"input_shape": [null, 7, 7, 960]}, "name": "tf.math.multiply_80", "inbound_nodes": [["re_lu_113", 0, 0, {"y": 0.16666666666666666, "name": null}]]}, {"module": "keras.layers", "class_name": "Multiply", "config": {"name": "multiply_57", "trainable": false, "dtype": "float32"}, "registered_name": null, "build_config": {"input_shape": [[null, 7, 7, 960], [null, 7, 7, 960]]}, "name": "multiply_57", "inbound_nodes": [[["expanded_conv_14/expand/BatchNorm", 0, 0, {}], ["tf.math.multiply_80", 0, 0, {}]]]}, {"module": "keras.layers", "class_name": "DepthwiseConv2D", "config": {"name": "expanded_conv_14/depthwise", "trainable": false, "dtype": "float32", "kernel_size": [5, 5], "strides": [1, 1], "padding": "same", "data_format": "channels_last", "dilation_rate": [1, 1], "groups": 1, "activation": "linear", "use_bias": false, "bias_initializer": {"module": "keras.initializers", "class_name": "Zeros", "config": {}, "registered_name": null}, "bias_regularizer": null, "activity_regularizer": null, "bias_constraint": null, "depth_multiplier": 1, "depthwise_initializer": {"module": "keras.initializers", "class_name": "GlorotUniform", "config": {"seed": null}, "registered_name": null}, "depthwise_regularizer": null, "depthwise_constraint": null}, "registered_name": null, "build_config": {"input_shape": [null, 7, 7, 960]}, "name": "expanded_conv_14/depthwise", "inbound_nodes": [[["multiply_57", 0, 0, {}]]]}, {"module": "keras.layers", "class_name": "BatchNormalization", "config": {"name": "expanded_conv_14/depthwise/BatchNorm", "trainable": false, "dtype": "float32", "axis": [3], "momentum": 0.999, "epsilon": 0.001, "center": true, "scale": true, "beta_initializer": {"module": "keras.initializers", "class_name": "Zeros", "config": {}, "registered_name": null}, "gamma_initializer": {"module": "keras.initializers", "class_name": "Ones", "config": {}, "registered_name": null}, "moving_mean_initializer": {"module": "keras.initializers", "class_name": "Zeros", "config": {}, "registered_name": null}, "moving_variance_initializer": {"module": "keras.initializers", "class_name": "Ones", "config": {}, "registered_name": null}, "beta_regularizer": null, "gamma_regularizer": null, "beta_constraint": null, "gamma_constraint": null}, "registered_name": null, "build_config": {"input_shape": [null, 7, 7, 960]}, "name": "expanded_conv_14/depthwise/BatchNorm", "inbound_nodes": [[["expanded_conv_14/depthwise", 0, 0, {}]]]}, {"module": "keras.src.layers.core.tf_op_layer", "class_name": "TFOpLambda", "config": {"name": "tf.__operators__.add_81", "trainable": false, "dtype": "float32", "function": "__operators__.add"}, "registered_name": "TFOpLambda", "build_config": {"input_shape": [null, 7, 7, 960]}, "name": "tf.__operators__.add_81", "inbound_nodes": [["expanded_conv_14/depthwise/BatchNorm", 0, 0, {"y": 3.0, "name": null}]]}, {"module": "keras.layers", "class_name": "ReLU", "config": {"name": "re_lu_114", "trainable": false, "dtype": "float32", "max_value": 6.0, "negative_slope": 0.0, "threshold": 0.0}, "registered_name": null, "build_config": {"input_shape": [null, 7, 7, 960]}, "name": "re_lu_114", "inbound_nodes": [[["tf.__operators__.add_81", 0, 0, {}]]]}, {"module": "keras.src.layers.core.tf_op_layer", "class_name": "TFOpLambda", "config": {"name": "tf.math.multiply_81", "trainable": false, "dtype": "float32", "function": "math.multiply"}, "registered_name": "TFOpLambda", "build_config": {"input_shape": [null, 7, 7, 960]}, "name": "tf.math.multiply_81", "inbound_nodes": [["re_lu_114", 0, 0, {"y": 0.16666666666666666, "name": null}]]}, {"module": "keras.layers", "class_name": "Multiply", "config": {"name": "multiply_58", "trainable": false, "dtype": "float32"}, "registered_name": null, "build_config": {"input_shape": [[null, 7, 7, 960], [null, 7, 7, 960]]}, "name": "multiply_58", "inbound_nodes": [[["expanded_conv_14/depthwise/BatchNorm", 0, 0, {}], ["tf.math.multiply_81", 0, 0, {}]]]}, {"module": "keras.layers", "class_name": "GlobalAveragePooling2D", "config": {"name": "expanded_conv_14/squeeze_excite/AvgPool", "trainable": false, "dtype": "float32", "data_format": "channels_last", "keepdims": true}, "registered_name": null, "build_config": {"input_shape": [null, 7, 7, 960]}, "name": "expanded_conv_14/squeeze_excite/AvgPool", "inbound_nodes": [[["multiply_58", 0, 0, {}]]]}, {"module": "keras.layers", "class_name": "Conv2D", "config": {"name": "expanded_conv_14/squeeze_excite/Conv", "trainable": false, "dtype": "float32", "filters": 240, "kernel_size": [1, 1], "strides": [1, 1], "padding": "same", "data_format": "channels_last", "dilation_rate": [1, 1], "groups": 1, "activation": "linear", "use_bias": true, "kernel_initializer": {"module": "keras.initializers", "class_name": "GlorotUniform", "config": {"seed": null}, "registered_name": null}, "bias_initializer": {"module": "keras.initializers", "class_name": "Zeros", "config": {}, "registered_name": null}, "kernel_regularizer": null, "bias_regularizer": null, "activity_regularizer": null, "kernel_constraint": null, "bias_constraint": null}, "registered_name": null, "build_config": {"input_shape": [null, 1, 1, 960]}, "name": "expanded_conv_14/squeeze_excite/Conv", "inbound_nodes": [[["expanded_conv_14/squeeze_excite/AvgPool", 0, 0, {}]]]}, {"module": "keras.layers", "class_name": "ReLU", "config": {"name": "expanded_conv_14/squeeze_excite/Relu", "trainable": false, "dtype": "float32", "max_value": null, "negative_slope": 0.0, "threshold": 0.0}, "registered_name": null, "build_config": {"input_shape": [null, 1, 1, 240]}, "name": "expanded_conv_14/squeeze_excite/Relu", "inbound_nodes": [[["expanded_conv_14/squeeze_excite/Conv", 0, 0, {}]]]}, {"module": "keras.layers", "class_name": "Conv2D", "config": {"name": "expanded_conv_14/squeeze_excite/Conv_1", "trainable": false, "dtype": "float32", "filters": 960, "kernel_size": [1, 1], "strides": [1, 1], "padding": "same", "data_format": "channels_last", "dilation_rate": [1, 1], "groups": 1, "activation": "linear", "use_bias": true, "kernel_initializer": {"module": "keras.initializers", "class_name": "GlorotUniform", "config": {"seed": null}, "registered_name": null}, "bias_initializer": {"module": "keras.initializers", "class_name": "Zeros", "config": {}, "registered_name": null}, "kernel_regularizer": null, "bias_regularizer": null, "activity_regularizer": null, "kernel_constraint": null, "bias_constraint": null}, "registered_name": null, "build_config": {"input_shape": [null, 1, 1, 240]}, "name": "expanded_conv_14/squeeze_excite/Conv_1", "inbound_nodes": [[["expanded_conv_14/squeeze_excite/Relu", 0, 0, {}]]]}, {"module": "keras.src.layers.core.tf_op_layer", "class_name": "TFOpLambda", "config": {"name": "tf.__operators__.add_82", "trainable": false, "dtype": "float32", "function": "__operators__.add"}, "registered_name": "TFOpLambda", "build_config": {"input_shape": [null, 1, 1, 960]}, "name": "tf.__operators__.add_82", "inbound_nodes": [["expanded_conv_14/squeeze_excite/Conv_1", 0, 0, {"y": 3.0, "name": null}]]}, {"module": "keras.layers", "class_name": "ReLU", "config": {"name": "re_lu_115", "trainable": false, "dtype": "float32", "max_value": 6.0, "negative_slope": 0.0, "threshold": 0.0}, "registered_name": null, "build_config": {"input_shape": [null, 1, 1, 960]}, "name": "re_lu_115", "inbound_nodes": [[["tf.__operators__.add_82", 0, 0, {}]]]}, {"module": "keras.src.layers.core.tf_op_layer", "class_name": "TFOpLambda", "config": {"name": "tf.math.multiply_82", "trainable": false, "dtype": "float32", "function": "math.multiply"}, "registered_name": "TFOpLambda", "build_config": {"input_shape": [null, 1, 1, 960]}, "name": "tf.math.multiply_82", "inbound_nodes": [["re_lu_115", 0, 0, {"y": 0.16666666666666666, "name": null}]]}, {"module": "keras.layers", "class_name": "Multiply", "config": {"name": "expanded_conv_14/squeeze_excite/Mul", "trainable": false, "dtype": "float32"}, "registered_name": null, "build_config": {"input_shape": [[null, 7, 7, 960], [null, 1, 1, 960]]}, "name": "expanded_conv_14/squeeze_excite/Mul", "inbound_nodes": [[["multiply_58", 0, 0, {}], ["tf.math.multiply_82", 0, 0, {}]]]}, {"module": "keras.layers", "class_name": "Conv2D", "config": {"name": "expanded_conv_14/project", "trainable": false, "dtype": "float32", "filters": 160, "kernel_size": [1, 1], "strides": [1, 1], "padding": "same", "data_format": "channels_last", "dilation_rate": [1, 1], "groups": 1, "activation": "linear", "use_bias": false, "kernel_initializer": {"module": "keras.initializers", "class_name": "GlorotUniform", "config": {"seed": null}, "registered_name": null}, "bias_initializer": {"module": "keras.initializers", "class_name": "Zeros", "config": {}, "registered_name": null}, "kernel_regularizer": null, "bias_regularizer": null, "activity_regularizer": null, "kernel_constraint": null, "bias_constraint": null}, "registered_name": null, "build_config": {"input_shape": [null, 7, 7, 960]}, "name": "expanded_conv_14/project", "inbound_nodes": [[["expanded_conv_14/squeeze_excite/Mul", 0, 0, {}]]]}, {"module": "keras.layers", "class_name": "BatchNormalization", "config": {"name": "expanded_conv_14/project/BatchNorm", "trainable": false, "dtype": "float32", "axis": [3], "momentum": 0.999, "epsilon": 0.001, "center": true, "scale": true, "beta_initializer": {"module": "keras.initializers", "class_name": "Zeros", "config": {}, "registered_name": null}, "gamma_initializer": {"module": "keras.initializers", "class_name": "Ones", "config": {}, "registered_name": null}, "moving_mean_initializer": {"module": "keras.initializers", "class_name": "Zeros", "config": {}, "registered_name": null}, "moving_variance_initializer": {"module": "keras.initializers", "class_name": "Ones", "config": {}, "registered_name": null}, "beta_regularizer": null, "gamma_regularizer": null, "beta_constraint": null, "gamma_constraint": null}, "registered_name": null, "build_config": {"input_shape": [null, 7, 7, 160]}, "name": "expanded_conv_14/project/BatchNorm", "inbound_nodes": [[["expanded_conv_14/project", 0, 0, {}]]]}, {"module": "keras.layers", "class_name": "Add", "config": {"name": "expanded_conv_14/Add", "trainable": false, "dtype": "float32"}, "registered_name": null, "build_config": {"input_shape": [[null, 7, 7, 160], [null, 7, 7, 160]]}, "name": "expanded_conv_14/Add", "inbound_nodes": [[["expanded_conv_13/Add", 0, 0, {}], ["expanded_conv_14/project/BatchNorm", 0, 0, {}]]]}, {"module": "keras.layers", "class_name": "Conv2D", "config": {"name": "Conv_1", "trainable": false, "dtype": "float32", "filters": 960, "kernel_size": [1, 1], "strides": [1, 1], "padding": "same", "data_format": "channels_last", "dilation_rate": [1, 1], "groups": 1, "activation": "linear", "use_bias": false, "kernel_initializer": {"module": "keras.initializers", "class_name": "GlorotUniform", "config": {"seed": null}, "registered_name": null}, "bias_initializer": {"module": "keras.initializers", "class_name": "Zeros", "config": {}, "registered_name": null}, "kernel_regularizer": null, "bias_regularizer": null, "activity_regularizer": null, "kernel_constraint": null, "bias_constraint": null}, "registered_name": null, "build_config": {"input_shape": [null, 7, 7, 160]}, "name": "Conv_1", "inbound_nodes": [[["expanded_conv_14/Add", 0, 0, {}]]]}, {"module": "keras.layers", "class_name": "BatchNormalization", "config": {"name": "Conv_1/BatchNorm", "trainable": false, "dtype": "float32", "axis": [3], "momentum": 0.999, "epsilon": 0.001, "center": true, "scale": true, "beta_initializer": {"module": "keras.initializers", "class_name": "Zeros", "config": {}, "registered_name": null}, "gamma_initializer": {"module": "keras.initializers", "class_name": "Ones", "config": {}, "registered_name": null}, "moving_mean_initializer": {"module": "keras.initializers", "class_name": "Zeros", "config": {}, "registered_name": null}, "moving_variance_initializer": {"module": "keras.initializers", "class_name": "Ones", "config": {}, "registered_name": null}, "beta_regularizer": null, "gamma_regularizer": null, "beta_constraint": null, "gamma_constraint": null}, "registered_name": null, "build_config": {"input_shape": [null, 7, 7, 960]}, "name": "Conv_1/BatchNorm", "inbound_nodes": [[["Conv_1", 0, 0, {}]]]}, {"module": "keras.src.layers.core.tf_op_layer", "class_name": "TFOpLambda", "config": {"name": "tf.__operators__.add_83", "trainable": false, "dtype": "float32", "function": "__operators__.add"}, "registered_name": "TFOpLambda", "build_config": {"input_shape": [null, 7, 7, 960]}, "name": "tf.__operators__.add_83", "inbound_nodes": [["Conv_1/BatchNorm", 0, 0, {"y": 3.0, "name": null}]]}, {"module": "keras.layers", "class_name": "ReLU", "config": {"name": "re_lu_116", "trainable": false, "dtype": "float32", "max_value": 6.0, "negative_slope": 0.0, "threshold": 0.0}, "registered_name": null, "build_config": {"input_shape": [null, 7, 7, 960]}, "name": "re_lu_116", "inbound_nodes": [[["tf.__operators__.add_83", 0, 0, {}]]]}, {"module": "keras.src.layers.core.tf_op_layer", "class_name": "TFOpLambda", "config": {"name": "tf.math.multiply_83", "trainable": false, "dtype": "float32", "function": "math.multiply"}, "registered_name": "TFOpLambda", "build_config": {"input_shape": [null, 7, 7, 960]}, "name": "tf.math.multiply_83", "inbound_nodes": [["re_lu_116", 0, 0, {"y": 0.16666666666666666, "name": null}]]}, {"module": "keras.layers", "class_name": "Multiply", "config": {"name": "multiply_59", "trainable": false, "dtype": "float32"}, "registered_name": null, "build_config": {"input_shape": [[null, 7, 7, 960], [null, 7, 7, 960]]}, "name": "multiply_59", "inbound_nodes": [[["Conv_1/BatchNorm", 0, 0, {}], ["tf.math.multiply_83", 0, 0, {}]]]}], "input_layers": [["input_3", 0, 0]], "output_layers": [["multiply_59", 0, 0]]}}, {"class_name": "GlobalAveragePooling2D", "config": {"name": "global_average_pooling2d_2", "trainable": true, "dtype": "float32", "data_format": "channels_last", "keepdims": false}}, {"class_name": "Dense", "config": {"name": "dense_2", "trainable": true, "dtype": "float32", "units": 6, "activation": "sigmoid", "use_bias": true, "kernel_initializer": {"module": "keras.initializers", "class_name": "GlorotUniform", "config": {"seed": null}, "registered_name": null}, "bias_initializer": {"module": "keras.initializers", "class_name": "Zeros", "config": {}, "registered_name": null}, "kernel_regularizer": null, "bias_regularizer": null, "activity_regularizer": null, "kernel_constraint": null, "bias_constraint": null}}]}}, "training_config": {"loss": "categorical_crossentropy", "metrics": [[{"class_name": "MeanMetricWrapper", "config": {"name": "accuracy", "dtype": "float32", "fn": "categorical_accuracy"}}]], "weighted_metrics": null, "loss_weights": null, "optimizer_config": {"class_name": "Custom>Adam", "config": {"name": "Adam", "weight_decay": null, "clipnorm": null, "global_clipnorm": null, "clipvalue": null, "use_ema": false, "ema_momentum": 0.99, "ema_overwrite_frequency": null, "jit_compile": false, "is_legacy_optimizer": false, "learning_rate": 0.10000000149011612, "beta_1": 0.9, "beta_2": 0.999, "epsilon": 1e-07, "amsgrad": false}}}}, "weightsManifest": [{"paths": ["group1-shard1of3.bin", "group1-shard2of3.bin", "group1-shard3of3.bin"], "weights": [{"name": "Conv/kernel", "shape": [3, 3, 3, 16], "dtype": "float32"}, {"name": "Conv/BatchNorm/gamma", "shape": [16], "dtype": "float32"}, {"name": "Conv/BatchNorm/beta", "shape": [16], "dtype": "float32"}, {"name": "Conv/BatchNorm/moving_mean", "shape": [16], "dtype": "float32"}, {"name": "Conv/BatchNorm/moving_variance", "shape": [16], "dtype": "float32"}, {"name": "expanded_conv/depthwise/depthwise_kernel", "shape": [3, 3, 16, 1], "dtype": "float32"}, {"name": "expanded_conv/depthwise/BatchNorm/gamma", "shape": [16], "dtype": "float32"}, {"name": "expanded_conv/depthwise/BatchNorm/beta", "shape": [16], "dtype": "float32"}, {"name": "expanded_conv/depthwise/BatchNorm/moving_mean", "shape": [16], "dtype": "float32"}, {"name": "expanded_conv/depthwise/BatchNorm/moving_variance", "shape": [16], "dtype": "float32"}, {"name": "expanded_conv/project/kernel", "shape": [1, 1, 16, 16], "dtype": "float32"}, {"name": "expanded_conv/project/BatchNorm/gamma", "shape": [16], "dtype": "float32"}, {"name": "expanded_conv/project/BatchNorm/beta", "shape": [16], "dtype": "float32"}, {"name": "expanded_conv/project/BatchNorm/moving_mean", "shape": [16], "dtype": "float32"}, {"name": "expanded_conv/project/BatchNorm/moving_variance", "shape": [16], "dtype": "float32"}, {"name": "expanded_conv_1/expand/kernel", "shape": [1, 1, 16, 64], "dtype": "float32"}, {"name": "expanded_conv_1/expand/BatchNorm/gamma", "shape": [64], "dtype": "float32"}, {"name": "expanded_conv_1/expand/BatchNorm/beta", "shape": [64], "dtype": "float32"}, {"name": "expanded_conv_1/expand/BatchNorm/moving_mean", "shape": [64], "dtype": "float32"}, {"name": "expanded_conv_1/expand/BatchNorm/moving_variance", "shape": [64], "dtype": "float32"}, {"name": "expanded_conv_1/depthwise/depthwise_kernel", "shape": [3, 3, 64, 1], "dtype": "float32"}, {"name": "expanded_conv_1/depthwise/BatchNorm/gamma", "shape": [64], "dtype": "float32"}, {"name": "expanded_conv_1/depthwise/BatchNorm/beta", "shape": [64], "dtype": "float32"}, {"name": "expanded_conv_1/depthwise/BatchNorm/moving_mean", "shape": [64], "dtype": "float32"}, {"name": "expanded_conv_1/depthwise/BatchNorm/moving_variance", "shape": [64], "dtype": "float32"}, {"name": "expanded_conv_1/project/kernel", "shape": [1, 1, 64, 24], "dtype": "float32"}, {"name": "expanded_conv_1/project/BatchNorm/gamma", "shape": [24], "dtype": "float32"}, {"name": "expanded_conv_1/project/BatchNorm/beta", "shape": [24], "dtype": "float32"}, {"name": "expanded_conv_1/project/BatchNorm/moving_mean", "shape": [24], "dtype": "float32"}, {"name": "expanded_conv_1/project/BatchNorm/moving_variance", "shape": [24], "dtype": "float32"}, {"name": "expanded_conv_2/expand/kernel", "shape": [1, 1, 24, 72], "dtype": "float32"}, {"name": "expanded_conv_2/expand/BatchNorm/gamma", "shape": [72], "dtype": "float32"}, {"name": "expanded_conv_2/expand/BatchNorm/beta", "shape": [72], "dtype": "float32"}, {"name": "expanded_conv_2/expand/BatchNorm/moving_mean", "shape": [72], "dtype": "float32"}, {"name": "expanded_conv_2/expand/BatchNorm/moving_variance", "shape": [72], "dtype": "float32"}, {"name": "expanded_conv_2/depthwise/depthwise_kernel", "shape": [3, 3, 72, 1], "dtype": "float32"}, {"name": "expanded_conv_2/depthwise/BatchNorm/gamma", "shape": [72], "dtype": "float32"}, {"name": "expanded_conv_2/depthwise/BatchNorm/beta", "shape": [72], "dtype": "float32"}, {"name": "expanded_conv_2/depthwise/BatchNorm/moving_mean", "shape": [72], "dtype": "float32"}, {"name": "expanded_conv_2/depthwise/BatchNorm/moving_variance", "shape": [72], "dtype": "float32"}, {"name": "expanded_conv_2/project/kernel", "shape": [1, 1, 72, 24], "dtype": "float32"}, {"name": "expanded_conv_2/project/BatchNorm/gamma", "shape": [24], "dtype": "float32"}, {"name": "expanded_conv_2/project/BatchNorm/beta", "shape": [24], "dtype": "float32"}, {"name": "expanded_conv_2/project/BatchNorm/moving_mean", "shape": [24], "dtype": "float32"}, {"name": "expanded_conv_2/project/BatchNorm/moving_variance", "shape": [24], "dtype": "float32"}, {"name": "expanded_conv_3/expand/kernel", "shape": [1, 1, 24, 72], "dtype": "float32"}, {"name": "expanded_conv_3/expand/BatchNorm/gamma", "shape": [72], "dtype": "float32"}, {"name": "expanded_conv_3/expand/BatchNorm/beta", "shape": [72], "dtype": "float32"}, {"name": "expanded_conv_3/expand/BatchNorm/moving_mean", "shape": [72], "dtype": "float32"}, {"name": "expanded_conv_3/expand/BatchNorm/moving_variance", "shape": [72], "dtype": "float32"}, {"name": "expanded_conv_3/depthwise/depthwise_kernel", "shape": [5, 5, 72, 1], "dtype": "float32"}, {"name": "expanded_conv_3/depthwise/BatchNorm/gamma", "shape": [72], "dtype": "float32"}, {"name": "expanded_conv_3/depthwise/BatchNorm/beta", "shape": [72], "dtype": "float32"}, {"name": "expanded_conv_3/depthwise/BatchNorm/moving_mean", "shape": [72], "dtype": "float32"}, {"name": "expanded_conv_3/depthwise/BatchNorm/moving_variance", "shape": [72], "dtype": "float32"}, {"name": "expanded_conv_3/squeeze_excite/Conv/kernel", "shape": [1, 1, 72, 24], "dtype": "float32"}, {"name": "expanded_conv_3/squeeze_excite/Conv/bias", "shape": [24], "dtype": "float32"}, {"name": "expanded_conv_3/squeeze_excite/Conv_1/kernel", "shape": [1, 1, 24, 72], "dtype": "float32"}, {"name": "expanded_conv_3/squeeze_excite/Conv_1/bias", "shape": [72], "dtype": "float32"}, {"name": "expanded_conv_3/project/kernel", "shape": [1, 1, 72, 40], "dtype": "float32"}, {"name": "expanded_conv_3/project/BatchNorm/gamma", "shape": [40], "dtype": "float32"}, {"name": "expanded_conv_3/project/BatchNorm/beta", "shape": [40], "dtype": "float32"}, {"name": "expanded_conv_3/project/BatchNorm/moving_mean", "shape": [40], "dtype": "float32"}, {"name": "expanded_conv_3/project/BatchNorm/moving_variance", "shape": [40], "dtype": "float32"}, {"name": "expanded_conv_4/expand/kernel", "shape": [1, 1, 40, 120], "dtype": "float32"}, {"name": "expanded_conv_4/expand/BatchNorm/gamma", "shape": [120], "dtype": "float32"}, {"name": "expanded_conv_4/expand/BatchNorm/beta", "shape": [120], "dtype": "float32"}, {"name": "expanded_conv_4/expand/BatchNorm/moving_mean", "shape": [120], "dtype": "float32"}, {"name": "expanded_conv_4/expand/BatchNorm/moving_variance", "shape": [120], "dtype": "float32"}, {"name": "expanded_conv_4/depthwise/depthwise_kernel", "shape": [5, 5, 120, 1], "dtype": "float32"}, {"name": "expanded_conv_4/depthwise/BatchNorm/gamma", "shape": [120], "dtype": "float32"}, {"name": "expanded_conv_4/depthwise/BatchNorm/beta", "shape": [120], "dtype": "float32"}, {"name": "expanded_conv_4/depthwise/BatchNorm/moving_mean", "shape": [120], "dtype": "float32"}, {"name": "expanded_conv_4/depthwise/BatchNorm/moving_variance", "shape": [120], "dtype": "float32"}, {"name": "expanded_conv_4/squeeze_excite/Conv/kernel", "shape": [1, 1, 120, 32], "dtype": "float32"}, {"name": "expanded_conv_4/squeeze_excite/Conv/bias", "shape": [32], "dtype": "float32"}, {"name": "expanded_conv_4/squeeze_excite/Conv_1/kernel", "shape": [1, 1, 32, 120], "dtype": "float32"}, {"name": "expanded_conv_4/squeeze_excite/Conv_1/bias", "shape": [120], "dtype": "float32"}, {"name": "expanded_conv_4/project/kernel", "shape": [1, 1, 120, 40], "dtype": "float32"}, {"name": "expanded_conv_4/project/BatchNorm/gamma", "shape": [40], "dtype": "float32"}, {"name": "expanded_conv_4/project/BatchNorm/beta", "shape": [40], "dtype": "float32"}, {"name": "expanded_conv_4/project/BatchNorm/moving_mean", "shape": [40], "dtype": "float32"}, {"name": "expanded_conv_4/project/BatchNorm/moving_variance", "shape": [40], "dtype": "float32"}, {"name": "expanded_conv_5/expand/kernel", "shape": [1, 1, 40, 120], "dtype": "float32"}, {"name": "expanded_conv_5/expand/BatchNorm/gamma", "shape": [120], "dtype": "float32"}, {"name": "expanded_conv_5/expand/BatchNorm/beta", "shape": [120], "dtype": "float32"}, {"name": "expanded_conv_5/expand/BatchNorm/moving_mean", "shape": [120], "dtype": "float32"}, {"name": "expanded_conv_5/expand/BatchNorm/moving_variance", "shape": [120], "dtype": "float32"}, {"name": "expanded_conv_5/depthwise/depthwise_kernel", "shape": [5, 5, 120, 1], "dtype": "float32"}, {"name": "expanded_conv_5/depthwise/BatchNorm/gamma", "shape": [120], "dtype": "float32"}, {"name": "expanded_conv_5/depthwise/BatchNorm/beta", "shape": [120], "dtype": "float32"}, {"name": "expanded_conv_5/depthwise/BatchNorm/moving_mean", "shape": [120], "dtype": "float32"}, {"name": "expanded_conv_5/depthwise/BatchNorm/moving_variance", "shape": [120], "dtype": "float32"}, {"name": "expanded_conv_5/squeeze_excite/Conv/kernel", "shape": [1, 1, 120, 32], "dtype": "float32"}, {"name": "expanded_conv_5/squeeze_excite/Conv/bias", "shape": [32], "dtype": "float32"}, {"name": "expanded_conv_5/squeeze_excite/Conv_1/kernel", "shape": [1, 1, 32, 120], "dtype": "float32"}, {"name": "expanded_conv_5/squeeze_excite/Conv_1/bias", "shape": [120], "dtype": "float32"}, {"name": "expanded_conv_5/project/kernel", "shape": [1, 1, 120, 40], "dtype": "float32"}, {"name": "expanded_conv_5/project/BatchNorm/gamma", "shape": [40], "dtype": "float32"}, {"name": "expanded_conv_5/project/BatchNorm/beta", "shape": [40], "dtype": "float32"}, {"name": "expanded_conv_5/project/BatchNorm/moving_mean", "shape": [40], "dtype": "float32"}, {"name": "expanded_conv_5/project/BatchNorm/moving_variance", "shape": [40], "dtype": "float32"}, {"name": "expanded_conv_6/expand/kernel", "shape": [1, 1, 40, 240], "dtype": "float32"}, {"name": "expanded_conv_6/expand/BatchNorm/gamma", "shape": [240], "dtype": "float32"}, {"name": "expanded_conv_6/expand/BatchNorm/beta", "shape": [240], "dtype": "float32"}, {"name": "expanded_conv_6/expand/BatchNorm/moving_mean", "shape": [240], "dtype": "float32"}, {"name": "expanded_conv_6/expand/BatchNorm/moving_variance", "shape": [240], "dtype": "float32"}, {"name": "expanded_conv_6/depthwise/depthwise_kernel", "shape": [3, 3, 240, 1], "dtype": "float32"}, {"name": "expanded_conv_6/depthwise/BatchNorm/gamma", "shape": [240], "dtype": "float32"}, {"name": "expanded_conv_6/depthwise/BatchNorm/beta", "shape": [240], "dtype": "float32"}, {"name": "expanded_conv_6/depthwise/BatchNorm/moving_mean", "shape": [240], "dtype": "float32"}, {"name": "expanded_conv_6/depthwise/BatchNorm/moving_variance", "shape": [240], "dtype": "float32"}, {"name": "expanded_conv_6/project/kernel", "shape": [1, 1, 240, 80], "dtype": "float32"}, {"name": "expanded_conv_6/project/BatchNorm/gamma", "shape": [80], "dtype": "float32"}, {"name": "expanded_conv_6/project/BatchNorm/beta", "shape": [80], "dtype": "float32"}, {"name": "expanded_conv_6/project/BatchNorm/moving_mean", "shape": [80], "dtype": "float32"}, {"name": "expanded_conv_6/project/BatchNorm/moving_variance", "shape": [80], "dtype": "float32"}, {"name": "expanded_conv_7/expand/kernel", "shape": [1, 1, 80, 200], "dtype": "float32"}, {"name": "expanded_conv_7/expand/BatchNorm/gamma", "shape": [200], "dtype": "float32"}, {"name": "expanded_conv_7/expand/BatchNorm/beta", "shape": [200], "dtype": "float32"}, {"name": "expanded_conv_7/expand/BatchNorm/moving_mean", "shape": [200], "dtype": "float32"}, {"name": "expanded_conv_7/expand/BatchNorm/moving_variance", "shape": [200], "dtype": "float32"}, {"name": "expanded_conv_7/depthwise/depthwise_kernel", "shape": [3, 3, 200, 1], "dtype": "float32"}, {"name": "expanded_conv_7/depthwise/BatchNorm/gamma", "shape": [200], "dtype": "float32"}, {"name": "expanded_conv_7/depthwise/BatchNorm/beta", "shape": [200], "dtype": "float32"}, {"name": "expanded_conv_7/depthwise/BatchNorm/moving_mean", "shape": [200], "dtype": "float32"}, {"name": "expanded_conv_7/depthwise/BatchNorm/moving_variance", "shape": [200], "dtype": "float32"}, {"name": "expanded_conv_7/project/kernel", "shape": [1, 1, 200, 80], "dtype": "float32"}, {"name": "expanded_conv_7/project/BatchNorm/gamma", "shape": [80], "dtype": "float32"}, {"name": "expanded_conv_7/project/BatchNorm/beta", "shape": [80], "dtype": "float32"}, {"name": "expanded_conv_7/project/BatchNorm/moving_mean", "shape": [80], "dtype": "float32"}, {"name": "expanded_conv_7/project/BatchNorm/moving_variance", "shape": [80], "dtype": "float32"}, {"name": "expanded_conv_8/expand/kernel", "shape": [1, 1, 80, 184], "dtype": "float32"}, {"name": "expanded_conv_8/expand/BatchNorm/gamma", "shape": [184], "dtype": "float32"}, {"name": "expanded_conv_8/expand/BatchNorm/beta", "shape": [184], "dtype": "float32"}, {"name": "expanded_conv_8/expand/BatchNorm/moving_mean", "shape": [184], "dtype": "float32"}, {"name": "expanded_conv_8/expand/BatchNorm/moving_variance", "shape": [184], "dtype": "float32"}, {"name": "expanded_conv_8/depthwise/depthwise_kernel", "shape": [3, 3, 184, 1], "dtype": "float32"}, {"name": "expanded_conv_8/depthwise/BatchNorm/gamma", "shape": [184], "dtype": "float32"}, {"name": "expanded_conv_8/depthwise/BatchNorm/beta", "shape": [184], "dtype": "float32"}, {"name": "expanded_conv_8/depthwise/BatchNorm/moving_mean", "shape": [184], "dtype": "float32"}, {"name": "expanded_conv_8/depthwise/BatchNorm/moving_variance", "shape": [184], "dtype": "float32"}, {"name": "expanded_conv_8/project/kernel", "shape": [1, 1, 184, 80], "dtype": "float32"}, {"name": "expanded_conv_8/project/BatchNorm/gamma", "shape": [80], "dtype": "float32"}, {"name": "expanded_conv_8/project/BatchNorm/beta", "shape": [80], "dtype": "float32"}, {"name": "expanded_conv_8/project/BatchNorm/moving_mean", "shape": [80], "dtype": "float32"}, {"name": "expanded_conv_8/project/BatchNorm/moving_variance", "shape": [80], "dtype": "float32"}, {"name": "expanded_conv_9/expand/kernel", "shape": [1, 1, 80, 184], "dtype": "float32"}, {"name": "expanded_conv_9/expand/BatchNorm/gamma", "shape": [184], "dtype": "float32"}, {"name": "expanded_conv_9/expand/BatchNorm/beta", "shape": [184], "dtype": "float32"}, {"name": "expanded_conv_9/expand/BatchNorm/moving_mean", "shape": [184], "dtype": "float32"}, {"name": "expanded_conv_9/expand/BatchNorm/moving_variance", "shape": [184], "dtype": "float32"}, {"name": "expanded_conv_9/depthwise/depthwise_kernel", "shape": [3, 3, 184, 1], "dtype": "float32"}, {"name": "expanded_conv_9/depthwise/BatchNorm/gamma", "shape": [184], "dtype": "float32"}, {"name": "expanded_conv_9/depthwise/BatchNorm/beta", "shape": [184], "dtype": "float32"}, {"name": "expanded_conv_9/depthwise/BatchNorm/moving_mean", "shape": [184], "dtype": "float32"}, {"name": "expanded_conv_9/depthwise/BatchNorm/moving_variance", "shape": [184], "dtype": "float32"}, {"name": "expanded_conv_9/project/kernel", "shape": [1, 1, 184, 80], "dtype": "float32"}, {"name": "expanded_conv_9/project/BatchNorm/gamma", "shape": [80], "dtype": "float32"}, {"name": "expanded_conv_9/project/BatchNorm/beta", "shape": [80], "dtype": "float32"}, {"name": "expanded_conv_9/project/BatchNorm/moving_mean", "shape": [80], "dtype": "float32"}, {"name": "expanded_conv_9/project/BatchNorm/moving_variance", "shape": [80], "dtype": "float32"}, {"name": "expanded_conv_10/expand/kernel", "shape": [1, 1, 80, 480], "dtype": "float32"}, {"name": "expanded_conv_10/expand/BatchNorm/gamma", "shape": [480], "dtype": "float32"}, {"name": "expanded_conv_10/expand/BatchNorm/beta", "shape": [480], "dtype": "float32"}, {"name": "expanded_conv_10/expand/BatchNorm/moving_mean", "shape": [480], "dtype": "float32"}, {"name": "expanded_conv_10/expand/BatchNorm/moving_variance", "shape": [480], "dtype": "float32"}, {"name": "expanded_conv_10/depthwise/depthwise_kernel", "shape": [3, 3, 480, 1], "dtype": "float32"}, {"name": "expanded_conv_10/depthwise/BatchNorm/gamma", "shape": [480], "dtype": "float32"}, {"name": "expanded_conv_10/depthwise/BatchNorm/beta", "shape": [480], "dtype": "float32"}, {"name": "expanded_conv_10/depthwise/BatchNorm/moving_mean", "shape": [480], "dtype": "float32"}, {"name": "expanded_conv_10/depthwise/BatchNorm/moving_variance", "shape": [480], "dtype": "float32"}, {"name": "expanded_conv_10/squeeze_excite/Conv/kernel", "shape": [1, 1, 480, 120], "dtype": "float32"}, {"name": "expanded_conv_10/squeeze_excite/Conv/bias", "shape": [120], "dtype": "float32"}, {"name": "expanded_conv_10/squeeze_excite/Conv_1/kernel", "shape": [1, 1, 120, 480], "dtype": "float32"}, {"name": "expanded_conv_10/squeeze_excite/Conv_1/bias", "shape": [480], "dtype": "float32"}, {"name": "expanded_conv_10/project/kernel", "shape": [1, 1, 480, 112], "dtype": "float32"}, {"name": "expanded_conv_10/project/BatchNorm/gamma", "shape": [112], "dtype": "float32"}, {"name": "expanded_conv_10/project/BatchNorm/beta", "shape": [112], "dtype": "float32"}, {"name": "expanded_conv_10/project/BatchNorm/moving_mean", "shape": [112], "dtype": "float32"}, {"name": "expanded_conv_10/project/BatchNorm/moving_variance", "shape": [112], "dtype": "float32"}, {"name": "expanded_conv_11/expand/kernel", "shape": [1, 1, 112, 672], "dtype": "float32"}, {"name": "expanded_conv_11/expand/BatchNorm/gamma", "shape": [672], "dtype": "float32"}, {"name": "expanded_conv_11/expand/BatchNorm/beta", "shape": [672], "dtype": "float32"}, {"name": "expanded_conv_11/expand/BatchNorm/moving_mean", "shape": [672], "dtype": "float32"}, {"name": "expanded_conv_11/expand/BatchNorm/moving_variance", "shape": [672], "dtype": "float32"}, {"name": "expanded_conv_11/depthwise/depthwise_kernel", "shape": [3, 3, 672, 1], "dtype": "float32"}, {"name": "expanded_conv_11/depthwise/BatchNorm/gamma", "shape": [672], "dtype": "float32"}, {"name": "expanded_conv_11/depthwise/BatchNorm/beta", "shape": [672], "dtype": "float32"}, {"name": "expanded_conv_11/depthwise/BatchNorm/moving_mean", "shape": [672], "dtype": "float32"}, {"name": "expanded_conv_11/depthwise/BatchNorm/moving_variance", "shape": [672], "dtype": "float32"}, {"name": "expanded_conv_11/squeeze_excite/Conv/kernel", "shape": [1, 1, 672, 168], "dtype": "float32"}, {"name": "expanded_conv_11/squeeze_excite/Conv/bias", "shape": [168], "dtype": "float32"}, {"name": "expanded_conv_11/squeeze_excite/Conv_1/kernel", "shape": [1, 1, 168, 672], "dtype": "float32"}, {"name": "expanded_conv_11/squeeze_excite/Conv_1/bias", "shape": [672], "dtype": "float32"}, {"name": "expanded_conv_11/project/kernel", "shape": [1, 1, 672, 112], "dtype": "float32"}, {"name": "expanded_conv_11/project/BatchNorm/gamma", "shape": [112], "dtype": "float32"}, {"name": "expanded_conv_11/project/BatchNorm/beta", "shape": [112], "dtype": "float32"}, {"name": "expanded_conv_11/project/BatchNorm/moving_mean", "shape": [112], "dtype": "float32"}, {"name": "expanded_conv_11/project/BatchNorm/moving_variance", "shape": [112], "dtype": "float32"}, {"name": "expanded_conv_12/expand/kernel", "shape": [1, 1, 112, 672], "dtype": "float32"}, {"name": "expanded_conv_12/expand/BatchNorm/gamma", "shape": [672], "dtype": "float32"}, {"name": "expanded_conv_12/expand/BatchNorm/beta", "shape": [672], "dtype": "float32"}, {"name": "expanded_conv_12/expand/BatchNorm/moving_mean", "shape": [672], "dtype": "float32"}, {"name": "expanded_conv_12/expand/BatchNorm/moving_variance", "shape": [672], "dtype": "float32"}, {"name": "expanded_conv_12/depthwise/depthwise_kernel", "shape": [5, 5, 672, 1], "dtype": "float32"}, {"name": "expanded_conv_12/depthwise/BatchNorm/gamma", "shape": [672], "dtype": "float32"}, {"name": "expanded_conv_12/depthwise/BatchNorm/beta", "shape": [672], "dtype": "float32"}, {"name": "expanded_conv_12/depthwise/BatchNorm/moving_mean", "shape": [672], "dtype": "float32"}, {"name": "expanded_conv_12/depthwise/BatchNorm/moving_variance", "shape": [672], "dtype": "float32"}, {"name": "expanded_conv_12/squeeze_excite/Conv/kernel", "shape": [1, 1, 672, 168], "dtype": "float32"}, {"name": "expanded_conv_12/squeeze_excite/Conv/bias", "shape": [168], "dtype": "float32"}, {"name": "expanded_conv_12/squeeze_excite/Conv_1/kernel", "shape": [1, 1, 168, 672], "dtype": "float32"}, {"name": "expanded_conv_12/squeeze_excite/Conv_1/bias", "shape": [672], "dtype": "float32"}, {"name": "expanded_conv_12/project/kernel", "shape": [1, 1, 672, 160], "dtype": "float32"}, {"name": "expanded_conv_12/project/BatchNorm/gamma", "shape": [160], "dtype": "float32"}, {"name": "expanded_conv_12/project/BatchNorm/beta", "shape": [160], "dtype": "float32"}, {"name": "expanded_conv_12/project/BatchNorm/moving_mean", "shape": [160], "dtype": "float32"}, {"name": "expanded_conv_12/project/BatchNorm/moving_variance", "shape": [160], "dtype": "float32"}, {"name": "expanded_conv_13/expand/kernel", "shape": [1, 1, 160, 960], "dtype": "float32"}, {"name": "expanded_conv_13/expand/BatchNorm/gamma", "shape": [960], "dtype": "float32"}, {"name": "expanded_conv_13/expand/BatchNorm/beta", "shape": [960], "dtype": "float32"}, {"name": "expanded_conv_13/expand/BatchNorm/moving_mean", "shape": [960], "dtype": "float32"}, {"name": "expanded_conv_13/expand/BatchNorm/moving_variance", "shape": [960], "dtype": "float32"}, {"name": "expanded_conv_13/depthwise/depthwise_kernel", "shape": [5, 5, 960, 1], "dtype": "float32"}, {"name": "expanded_conv_13/depthwise/BatchNorm/gamma", "shape": [960], "dtype": "float32"}, {"name": "expanded_conv_13/depthwise/BatchNorm/beta", "shape": [960], "dtype": "float32"}, {"name": "expanded_conv_13/depthwise/BatchNorm/moving_mean", "shape": [960], "dtype": "float32"}, {"name": "expanded_conv_13/depthwise/BatchNorm/moving_variance", "shape": [960], "dtype": "float32"}, {"name": "expanded_conv_13/squeeze_excite/Conv/kernel", "shape": [1, 1, 960, 240], "dtype": "float32"}, {"name": "expanded_conv_13/squeeze_excite/Conv/bias", "shape": [240], "dtype": "float32"}, {"name": "expanded_conv_13/squeeze_excite/Conv_1/kernel", "shape": [1, 1, 240, 960], "dtype": "float32"}, {"name": "expanded_conv_13/squeeze_excite/Conv_1/bias", "shape": [960], "dtype": "float32"}, {"name": "expanded_conv_13/project/kernel", "shape": [1, 1, 960, 160], "dtype": "float32"}, {"name": "expanded_conv_13/project/BatchNorm/gamma", "shape": [160], "dtype": "float32"}, {"name": "expanded_conv_13/project/BatchNorm/beta", "shape": [160], "dtype": "float32"}, {"name": "expanded_conv_13/project/BatchNorm/moving_mean", "shape": [160], "dtype": "float32"}, {"name": "expanded_conv_13/project/BatchNorm/moving_variance", "shape": [160], "dtype": "float32"}, {"name": "expanded_conv_14/expand/kernel", "shape": [1, 1, 160, 960], "dtype": "float32"}, {"name": "expanded_conv_14/expand/BatchNorm/gamma", "shape": [960], "dtype": "float32"}, {"name": "expanded_conv_14/expand/BatchNorm/beta", "shape": [960], "dtype": "float32"}, {"name": "expanded_conv_14/expand/BatchNorm/moving_mean", "shape": [960], "dtype": "float32"}, {"name": "expanded_conv_14/expand/BatchNorm/moving_variance", "shape": [960], "dtype": "float32"}, {"name": "expanded_conv_14/depthwise/depthwise_kernel", "shape": [5, 5, 960, 1], "dtype": "float32"}, {"name": "expanded_conv_14/depthwise/BatchNorm/gamma", "shape": [960], "dtype": "float32"}, {"name": "expanded_conv_14/depthwise/BatchNorm/beta", "shape": [960], "dtype": "float32"}, {"name": "expanded_conv_14/depthwise/BatchNorm/moving_mean", "shape": [960], "dtype": "float32"}, {"name": "expanded_conv_14/depthwise/BatchNorm/moving_variance", "shape": [960], "dtype": "float32"}, {"name": "expanded_conv_14/squeeze_excite/Conv/kernel", "shape": [1, 1, 960, 240], "dtype": "float32"}, {"name": "expanded_conv_14/squeeze_excite/Conv/bias", "shape": [240], "dtype": "float32"}, {"name": "expanded_conv_14/squeeze_excite/Conv_1/kernel", "shape": [1, 1, 240, 960], "dtype": "float32"}, {"name": "expanded_conv_14/squeeze_excite/Conv_1/bias", "shape": [960], "dtype": "float32"}, {"name": "expanded_conv_14/project/kernel", "shape": [1, 1, 960, 160], "dtype": "float32"}, {"name": "expanded_conv_14/project/BatchNorm/gamma", "shape": [160], "dtype": "float32"}, {"name": "expanded_conv_14/project/BatchNorm/beta", "shape": [160], "dtype": "float32"}, {"name": "expanded_conv_14/project/BatchNorm/moving_mean", "shape": [160], "dtype": "float32"}, {"name": "expanded_conv_14/project/BatchNorm/moving_variance", "shape": [160], "dtype": "float32"}, {"name": "Conv_1/kernel", "shape": [1, 1, 160, 960], "dtype": "float32"}, {"name": "Conv_1/BatchNorm/gamma", "shape": [960], "dtype": "float32"}, {"name": "Conv_1/BatchNorm/beta", "shape": [960], "dtype": "float32"}, {"name": "Conv_1/BatchNorm/moving_mean", "shape": [960], "dtype": "float32"}, {"name": "Conv_1/BatchNorm/moving_variance", "shape": [960], "dtype": "float32"}, {"name": "dense_2/kernel", "shape": [960, 6], "dtype": "float32"}, {"name": "dense_2/bias", "shape": [6], "dtype": "float32"}]}]}
